lunar_lander_model_DQL.pth (torch, 23305 bytes, 6 tensors)

net.0.weight f4 [64, 8]
000000 5a 86 45 3f cf 69 a8 3c 2a c8 74 3f ef c9 57 bd
       0.7715813 0.020558266 0.95617926 -0.052682813
000010 e9 0f 7c 3f ce 8b 8b 3f ca b8 56 bf 1d f0 1a be
       0.98461777 1.090204 -0.83875716 -0.15130658
000020 df 24 a4 3e 8a de 12 3c ef 14 e3 3d a8 55 73 be
       0.3205938 0.00896419 0.11087977 -0.23763144
000030 79 e8 86 be 40 19 b1 3e f4 e7 07 3f 92 dd 6b 3e
       -0.26349238 0.34589577 0.5308831 0.23033741
000040 00 69 63 3d 74 27 2f 3e 29 bf fd 3f c2 c8 a0 3d
       0.055520058 0.17104894 1.9823962 0.078507915
000050 e3 6b 0a bd fe d6 47 3e e5 f6 73 3f 57 7d a5 be
       -0.033794295 0.19515607 0.95298606 -0.3232219
000060 c7 6a a4 3e 51 c2 bc 3d 76 7e d2 3e 0d a9 90 be
       0.32112715 0.092167504 0.41112107 -0.28253976
000070 ad 65 ea bc a4 6b 84 bf e4 bf 8a bf 93 2d 2a 3f
       -0.028612936 -1.0345349 -1.083981 0.6647579
000080 6a 9b 1b 3f b3 b6 2f 3e 34 04 28 3c 98 63 0b be
       0.6078402 0.17159538 0.010254908 -0.13612211
000090 17 40 8f 3d 03 fb 46 bf 66 cd 91 3d 6a 13 09 3f
       0.06994646 -0.77726763 0.07119255 0.5354525
0000a0 b7 21 11 bf bb fe f6 bd c5 d8 e1 3f 0e e2 1e bd
       -0.5669207 -0.12060305 1.7644278 -0.0387898
0000b0 c7 6b a7 bf 2f 7f de be 87 65 24 bf 93 fd 6f 3d
       -1.3079766 -0.43456408 -0.6421742 0.058591437
0000c0 61 3b e7 be be 3c 83 3e 01 56 57 3e b1 ab 22 be
       -0.4516249 0.2563228 0.21028902 -0.15885808
0000d0 80 1d a9 be d3 07 ea 3e 1d 66 70 3f 79 63 06 3f
       -0.3303032 0.45709094 0.9390581 0.52495533
0000e0 15 08 89 be 84 0b ee 3e a9 2c ad bf 1d e6 91 bf
       -0.2676398 0.4649316 -1.3529254 -1.139835
0000f0 53 17 2e 3f eb f2 8b be 7e 99 12 bf c7 6e 9f be
       0.6800434 -0.2733377 -0.5726546 -0.31139204
000100 f7 66 18 be 25 c1 9c 3e b5 da 08 3e 69 64 92 3f
       -0.14883028 0.30616108 0.1336468 1.1436893
000110 9e 5c d0 bf 48 ac 54 3f f0 a5 2d 3f 85 88 19 be
       -1.6278265 0.8307538 0.67831326 -0.14993484
000120 b5 af 1e 3f 1d ab e0 3e a1 f8 a2 be 2d c9 a4 bf
       0.6198686 0.4388055 -0.31830314 -1.2873894
000130 86 71 b6 3e 14 eb d0 3e 55 a9 4f bf d8 ae 6a bf
       0.35633487 0.4080435 -0.81117755 -0.9167304
000140 06 27 e8 bf 06 c6 08 bf 5c ff 26 bf 81 ea 21 bf
       -1.8136909 -0.5342716 -0.652334 -0.6324845
000150 33 5d 96 3f f4 95 13 3d d5 08 5d bc 88 35 8b 3c
       1.1747192 0.03603168 -0.013490875 0.0169933
000160 c1 bb 39 3f ee 75 fc 3e 93 1c b0 3e 58 f7 8b 3f
       0.72552115 0.49308723 0.343968 1.0934858
000170 a1 e1 6d be 0e 2b d2 3e f4 ef 94 bf 75 32 74 be
       -0.23230602 0.41048473 -1.1635728 -0.23847373
000180 ef a3 91 bf 40 82 cb 3d 82 de 96 3f 26 55 86 bf
       -1.1378154 0.099369526 1.1786654 -1.0494735
000190 0b 0b 82 bf 04 6c 95 be e5 1c 95 bf 5f fa 5e bf
       -1.015962 -0.29183972 -1.1649443 -0.87100786
0001a0 4b 0c 2c bf 79 c1 f5 3d df 0d bf bd 1c 74 a8 bf
       -0.6720626 0.119997926 -0.093288176 -1.3160434
0001b0 db 7a 4b 3f b3 ba a9 3f 5b 45 8e 3e 90 e9 b9 be
       0.7948434 1.3260101 0.2778729 -0.36311007
0001c0 db a6 ef 3e 5c 29 34 3e b6 24 24 bf 0a 7f 8e bd
       0.46806988 0.17593902 -0.64118516 -0.069578245
0001d0 2a e8 89 3f 57 bc 5d bf ef 5a 0d bf 85 6f 78 3c
       1.0773976 -0.8661551 -0.5521688 0.015163307
0001e0 36 34 c8 b8 88 c7 52 be 81 81 23 bd 8f 54 1e be
       -9.546468e-05 -0.20583928 -0.039918426 -0.15461944
0001f0 68 68 d1 3f 2c 9c 66 bd ce 5d 8a bd b8 a2 c7 3e
       1.6359987 -0.05630128 -0.06756173 0.38991332
000200 8a b2 c8 bd e6 16 0b c0 1c da 27 3f f2 7f 16 3d
       -0.097996786 -2.1732726 0.65567183 0.036743112
000210 05 a2 56 3f 22 1e 72 3e 7f d3 18 3f a1 8e 81 3e
       0.8384097 0.23644307 0.5969772 0.2530413
000220 3c 82 35 bf d7 0a b0 3d 40 87 b9 3c 62 3c 3b bd
       -0.70901847 0.085958175 0.0226475 -0.045711882
000230 c1 8b 5a be ea 5a 9b 3f 85 0f d2 be 91 89 d8 bf
       -0.21342374 1.213712 -0.41027465 -1.6916982
000240 8a 9f 76 3d d0 02 9d be 96 6a 99 3d 9d 53 e1 be
       0.060210742 -0.30666208 0.07491033 -0.44009104
000250 c5 85 77 bf a0 c7 80 bf 27 e6 d8 3e 87 f8 ff be
       -0.9668849 -1.0060921 0.42363092 -0.499943
000260 b3 d6 25 3f 8c 35 ec be a5 b2 23 3e 68 61 0d bf
       0.6478073 -0.46134603 0.15986116 -0.55226755
000270 c0 bb c7 bf 9e f5 10 bf 6b e9 c1 3d 82 61 b0 3e
       -1.5604172 -0.5662478 0.09468349 0.34449393
000280 e1 67 6c 3e 62 39 e5 bd b8 ea 44 bf 8f fa 33 3f
       0.23086502 -0.111925855 -0.7692065 0.703042
000290 e8 65 eb 3d 73 41 95 3f 79 93 a3 bf 16 4c db bd
       0.114940464 1.1660599 -1.277938 -0.107078716
0002a0 c3 59 4e 3f 62 af 5b 3e 9a 09 ab be 2e a8 e7 3f
       0.80605716 0.21453622 -0.33405763 1.8098199
0002b0 b7 99 d3 3e af 8f 43 be 51 f7 18 bf 9c 0b 03 bf
       0.41328213 -0.1909778 -0.59752375 -0.5118959
0002c0 fc 54 f1 3e e1 79 18 bf 06 b1 cd 3e 83 33 a1 bf
       0.4713515 -0.5956097 0.4017412 -1.2593845
0002d0 43 a4 bc bd 47 ad eb be 07 46 1e bf aa 14 7c 3e
       -0.09211018 -0.46030638 -0.61825603 0.24617258
0002e0 48 e2 98 bd 8a b3 52 bb 33 5e 66 3e 18 ec 61 3e
       -0.07465035 -0.003215047 0.22496872 0.22062719
0002f0 ed 36 39 3f b8 d5 6f be b4 29 c1 3d f7 66 27 3f
       0.72349435 -0.23421371 0.09431782 0.65391487
000300 57 c5 4c 3f d7 cd 2d 3e 2e 64 09 3f 04 c8 03 bd
       0.79988617 0.16973053 0.5366849 -0.03217317
000310 8c d9 7b 3d 83 57 41 bd d9 14 f5 be a1 62 40 3f
       0.061486766 -0.0472026 -0.47867468 0.75150496
000320 b5 fa c0 bd 93 5f 1e 3e 52 ca d5 be 37 69 80 bf
       -0.094228186 0.15466146 -0.4175592 -1.0032109
000330 38 91 36 bf 4c 72 2f bf bf 0a d2 bd ce 4a 93 3e
       -0.71315336 -0.6853378 -0.10255956 0.2876801
000340 03 c7 4c 3f e6 ed e5 3e 24 43 3f 3f 35 09 8d bf
       0.7999117 0.44908065 0.74711823 -1.1018435
000350 52 14 0a be c0 f1 7f bb dd 9a 6a bf bc cf 12 bf
       -0.13484314 -0.0039054006 -0.9164255 -0.5734823
000360 7a a5 2f 3f 85 29 8c be f2 15 11 3f f1 27 35 bf
       0.6861187 -0.27375427 0.5667411 -0.7076407
000370 10 bf e3 3e 1a 7e 9e be 3e dd 37 bf bd 2d a8 bd
       0.44481707 -0.30955583 -0.71821964 -0.08211849
000380 7a 81 76 3f 3d f5 94 3e 7e 89 26 3f e6 f7 34 3f
       0.96291316 0.29093352 0.65053546 0.70690763
000390 3f 65 a5 bf b9 84 2b bf 9a 60 aa 3e d0 88 8e bd
       -1.2921523 -0.66999394 0.33276826 -0.06959689
0003a0 65 7c 0d 3d 7c ee 1c bc 4a fe 36 bf f7 ea e5 bf
       0.03454246 -0.0095783435 -0.71481764 -1.796233
0003b0 9d 2e b2 3f bd a8 65 be c0 6e 48 bf 54 6b c0 be
       1.3920475 -0.2242765 -0.7829399 -0.37581885
0003c0 4e 4f a5 bf e5 e4 03 3f 5a 25 ad 3e c5 b8 ef be
       -1.2914827 0.5152114 0.3381756 -0.46820655
0003d0 71 96 41 bf e4 79 84 3e 24 c4 4f bf 04 0b 82 bf
       -0.7562018 0.25874245 -0.8115866 -1.0159612
0003e0 11 ed 1f 3e e6 a2 4e bf 56 74 e0 be 76 52 5a 3e
       0.15617777 -0.80717313 -0.43838757 0.21320519
0003f0 cf 8a b4 3e fc b5 c0 3e 8b e0 80 bf 5e 88 38 be
       0.35262153 0.37638843 -1.0068525 -0.1802077

net.0.bias f4 [64]
000000 02 be 94 bd e3 88 76 3e c3 4f b7 bd b1 1a 05 bf
       -0.072628036 0.24075656 -0.0895076 -0.5199385
000010 51 0c b1 3e 0b e2 2a 3e 2f ed dc be 86 9e 25 3f
       0.3457971 0.16687791 -0.43149707 0.6469501
000020 59 3a 61 3e ab d7 5a 3f fe 29 af bd 51 2c fc 3e
       0.21994914 0.85485333 -0.08552931 0.4925256
000030 89 7a 78 3e e2 07 da be 0b 32 9a be 20 97 07 3f
       0.24265493 -0.4258414 -0.30116305 0.52964973
000040 3b 1f e7 3e e5 06 e0 3e 93 18 1e 3f b5 e6 e6 be
       0.45141014 0.4375526 0.6175625 -0.4509789
000050 e5 60 bd bf 4c c8 03 3e 2f af 67 be 30 ed 00 3f
       -1.4795195 0.12869376 -0.22625421 0.5036192
000060 34 d4 06 3d e5 c9 20 bf 1e 41 d7 3e 25 0c ab bd
       0.032917216 -0.62808067 0.42041868 -0.08351926
000070 b0 8b b3 3e b8 9e 12 3f 58 92 16 bf 63 ea 43 3f
       0.3506751 0.57273436 -0.5881705 0.7652952
000080 67 b8 c3 3e 4f 45 da be 90 df cb 3e dc d7 37 3f
       0.38226625 -0.42631003 0.39819002 0.7181375
000090 73 b6 80 3e c0 35 87 3e e0 92 2d 3f e1 e0 1a 3f
       0.25139198 0.26408195 0.6780224 0.6049939
0000a0 e4 c0 3a 3f 1b 1b 19 3f 01 74 fc 3e b6 62 18 3e
       0.7295058 0.59806985 0.49307254 0.14881405
0000b0 fd 89 3b bf b3 97 bf 3e 45 48 16 3f 2c 45 0c 3f
       -0.7325743 0.37420425 0.58704025 0.5479305
0000c0 df 5b a9 bc 2a 26 89 bf 2c 40 ba be c7 b8 ba 3e
       -0.02067369 -1.0714772 -0.36377084 0.364691
0000d0 9e 54 71 be 2a 2d 7c 3d 82 31 16 3f 7c 36 75 be
       -0.23567435 0.06156651 0.5866929 -0.23946565
0000e0 ca b3 9b 3d b0 6b 21 be e8 7b 30 3e 47 1a 4f be
       0.076026514 -0.15763736 0.17234766 -0.20224868
0000f0 68 a6 26 3f cc 54 28 3f 0e 1e 75 3e b0 10 a8 3d
       0.65097666 0.6575439 0.23937246 0.08206308

net.2.weight f4 [64, 64]
000000 29 f1 70 bf 90 df d5 3d a3 2e 7a 3f 67 82 90 bf
       -0.9411798 0.10443032 0.9772741 -1.1289796
000010 a5 9b ac 3e b1 9b 67 3f f2 11 b0 bf 05 63 6f 3d
       0.33712497 0.9047194 -1.3755476 0.05844404
000020 2f 32 81 3d 3d 23 04 3f 47 08 b1 bf 40 38 fe bd
       0.063084 0.5161627 -1.3830651 -0.124130726
000030 2f 4b 03 3f a2 cc 77 bf 85 b8 a1 3d 67 2e 4e bf
       0.51286596 -0.9679662 0.078965224 -0.80539554
000040 86 15 51 bf 09 39 6c be 4d 6b 90 3e bc f8 8d bf
       -0.8167347 -0.23068632 0.28206864 -1.1091533
000050 62 8e e3 3e 57 20 81 bf 71 4d 5e be 88 18 8e bf
       0.44444567 -1.0087994 -0.21709229 -1.1101236
000060 ae d9 67 be 73 e2 b5 3e 2d 4c 5c 3f 16 6e 01 bf
       -0.22641632 0.3552433 0.86053735 -0.505586
000070 a5 1d fc bd a5 58 1b 3f 4e 04 33 be 9b b7 89 bf
       -0.12310342 0.60682136 -0.17482111 -1.0759157
000080 14 85 9e be c1 f0 cb bf 86 8c 97 bf 6a 8d 1b 3f
       -0.30960906 -1.5932847 -1.1839759 0.60762656
000090 77 55 1b bc ad 38 52 bf 9a f0 de 3e b4 f8 2c 3f
       -0.009480826 -0.8211773 0.4354294 0.6756699
0000a0 1b f7 ae 3e 56 08 da 3e fe 09 9a 3e 53 d8 0c c0
       0.34172902 0.42584485 0.30085748 -2.2007034
0000b0 6b 68 e3 bf 98 8f 0f be 43 b8 38 3f 71 97 41 bf
       -1.7766241 -0.1401962 0.7215616 -0.75621706
0000c0 11 30 33 bf e4 6f cd bf 42 9a 76 3d 09 50 17 3f
       -0.6999522 -1.6049771 0.060205705 0.591065
0000d0 6d 6c 80 bf 95 ae 7d 3f 03 10 d3 be 1b aa e8 be
       -1.0033089 0.99094516 -0.41223153 -0.4544228
0000e0 aa 63 46 3e d0 6b a2 be c9 ae c1 be bf 07 37 3f
       0.19373956 -0.3172288 -0.37828663 0.71496195
0000f0 00 ba 6b bd 10 e4 b8 bf aa 97 06 3f a1 1a 63 3a
       -0.05755043 -1.4444599 0.5257517 0.0008663331
000100 0c a6 29 3f 70 3e 0c bd 8d 0d 8b be 86 4a 9a 3f
       0.6626899 -0.034239233 -0.27158776 1.2053993
000110 e7 22 6c bd e9 a7 4c bf b1 25 d4 3e 7a be 47 3e
       -0.057650473 -0.7994371 0.41435006 0.19506255
000120 e2 5e 15 bf 56 55 75 3e bd 63 bf 3e eb ab 27 3f
       -0.58347905 0.23958334 0.37380782 0.654967
000130 4d 71 f6 3e 82 52 77 3f 05 94 7e 3e a5 11 17 be
       0.48133317 0.9661027 0.24861152 -0.14752825
000140 1c c4 e9 bf df d5 89 3f 2e 01 e8 3e d8 4a fb bf
       -1.8262973 1.0768393 0.453134 -1.9632215
000150 4f be 02 40 45 4c 84 bd 26 fb 1a 3e 51 7b 9d 3e
       2.0428655 -0.0645986 0.15134868 0.30758145
000160 cd 2d 8d bc dd eb 81 bf c4 1a 04 3e 89 17 5e be
       -0.017233754 -1.0150105 0.12900835 -0.21688665
000170 4e f9 2e 3f 14 0d 83 3e 21 ae 8c be d0 09 57 3e
       0.6834916 0.25595915 -0.274766 0.20999837
000180 ca db c5 3e 71 12 39 bf 29 e3 87 3f 97 81 c7 3e
       0.38644248 -0.72293764 1.0616199 0.38966057
000190 5a ec 79 bf 5d 37 88 3f 06 11 ca bc 06 0a a7 3c
       -0.9762627 1.0641896 -0.02466632 0.020390522
0001a0 70 6f 0e bd b0 06 9c 3e 58 73 1c bf da 28 99 3e
       -0.034774244 0.30473852 -0.611135 0.2991398
0001b0 25 e3 48 3e 9e 31 9e 3e 00 82 79 bf 18 fa b8 3e
       0.19617899 0.3089723 -0.9746399 0.36128306
0001c0 49 0b 2a bb 76 6c d4 3f 41 e9 05 be a8 77 33 3e
       -0.0025946668 1.65956 -0.1307726 0.17526114
0001d0 c2 d9 de 3e 9c 34 3b bf 7a 8f ca be 8c 87 c0 be
       0.4352551 -0.7312715 -0.3956259 -0.37603414
0001e0 87 d5 34 3f ef ce 9d bf cd fc cb be 00 ed 8f bf
       0.70638317 -1.2328776 -0.3984131 -1.1244202
0001f0 d2 b0 95 3c 23 a2 87 3e 6f de 57 bd db 0d b5 3e
       0.018272791 0.26490888 -0.052702364 0.35362133
000200 8f 51 d8 bd f6 c2 19 bf 20 a5 47 3f fa 95 da 3b
       -0.10562431 -0.6006311 0.77986336 0.0066707106
000210 e7 9a 56 be 16 09 8e 3f f6 dd d6 bf f8 10 1d 3f
       -0.20957528 1.1096523 -1.6786487 0.6135402
000220 d6 82 ff 3e 8e 88 22 3f 02 d9 a0 bf 4c df 74 bd
       0.49904507 0.63489616 -1.2566226 -0.059783265
000230 c9 ed d0 3e cb 52 ba be db f2 22 be 33 6b d1 3d
       0.40806416 -0.3639129 -0.15912955 0.10225525
000240 24 f0 64 3f 68 50 8a be aa 68 3a be 54 31 b1 bf
       0.89428926 -0.2701447 -0.18203989 -1.3843179
000250 b7 e5 85 be 86 93 58 3f c0 e8 64 be 07 27 80 be
       -0.2615182 0.846001 -0.22354412 -0.25029776
000260 20 5d 62 3d a7 6a 4f bf d5 91 1f 3f 19 3e 7a bd
       0.055264592 -0.81022114 0.623319 -0.061094377
000270 77 ce 53 bd d3 03 f3 3e 7f a7 85 3f 98 23 00 3f
       -0.051710572 0.47463855 1.0441741 0.5005431
000280 0a 12 85 bf 06 e0 ab bf fd 1f 78 be 4d 9a 0b 3f
       -1.039613 -1.3427742 -0.24230953 0.5453232
000290 4e aa d0 3f 39 e1 1b bf 80 4b 2d 3f 4e 51 22 3f
       1.6301973 -0.6089054 0.6769333 0.6340531
0002a0 b3 0a 48 3f 34 03 4e 3f fc 31 da 3e dd 81 65 3e
       0.78141326 0.8047364 0.4261626 0.2241282
0002b0 5d 14 59 bf 0f 10 72 bf 05 8c 07 3f b6 a4 16 3f
       -0.84796697 -0.94555753 0.5294803 0.5884508
0002c0 55 b5 91 bf 2d 5d 50 bf 30 b3 1a bd 91 2f 20 3d
       -1.1383463 -0.81392175 -0.037768543 0.039107863
0002d0 1c 7a 9b bf 4f 6d 97 3f 1b 72 ac 3e e8 8f 23 3f
       -1.214664 1.1830233 0.33680806 0.6389146
0002e0 2f ba 0a bf e7 b3 b3 be ed d2 1a bf 9b 8e 52 3f
       -0.54190344 -0.35098192 -0.604781 0.8224885
0002f0 a0 ae 72 3f a0 4b ff bd 65 f5 48 3f fa 67 4c be
       0.94797707 -0.12465596 0.7849944 -0.19961539
000300 57 21 1d 3d c9 e9 a4 bd bf 3d 1a 3f af a7 22 3f
       0.038361873 -0.080524035 0.6025047 0.63537115
000310 bf 40 32 bf a1 47 89 3f 87 6b 81 bf a7 16 37 3f
       -0.69630045 1.0724984 -1.011094 0.7151894
000320 c6 3c be be 8c fd dc 3e 73 e8 3b bf 05 ac fe bb
       -0.3715574 0.4316219 -0.73401564 -0.007771971
000330 44 f7 1a 3f f0 1b 6a be 76 c2 01 3f ad f5 86 be
       0.6053355 -0.2286222 0.5068735 -0.2635931
000340 3b f5 bb 3f 15 4d 93 3e 05 22 3c be 1c a2 31 bf
       1.4684213 0.28769746 -0.18372352 -0.69387984
000350 24 8d a3 bf 79 e0 48 bf 08 d5 39 be aa 9c c7 3d
       -1.2777448 -0.7846752 -0.18147671 0.09746678
000360 af 8f be be 68 ca cf 3e f7 bf ab 3e 7f e2 90 bd
       -0.37218997 0.4058411 0.33544895 -0.07074451
000370 8a 82 1a bf a9 f3 36 3f 58 d9 98 3f da 80 f5 be
       -0.60355437 0.71465546 1.1941328 -0.47949868
000380 bf 9e f8 bd 91 5f 04 bf c1 f9 d7 bd 38 0d cf 3e
       -0.121396534 -0.5170832 -0.10545684 0.40439773
000390 5a 9d 55 3f 83 8f 19 bd be b5 5a 3e 93 87 ee 3e
       0.83443224 -0.03749038 0.21358392 0.4658781
0003a0 56 9d d7 3e ac a4 be 3e 93 22 34 3f 60 bd d2 be
       0.42112225 0.3723501 0.70365256 -0.41160107
0003b0 01 c8 b7 bf 79 a7 ac 3d 3d 90 b5 3e bc 42 0a bf
       -1.4357911 0.084303804 0.35461608 -0.5400808
0003c0 a4 32 1e bf 92 37 16 bf d8 b7 10 bd 28 ed 76 bd
       -0.6179602 -0.58678544 -0.035331577 -0.060284764
0003d0 e6 ce 6f bf 6d 7c b2 3e 17 8b cc be 39 38 31 be
       -0.93675077 0.34860554 -0.39949867 -0.17306603
0003e0 a2 11 8c 3e 70 57 13 bd 4c d5 1d be 0a c3 02 3e
       0.27357203 -0.03597206 -0.15413398 0.12769714
0003f0 0d 94 a0 3f 01 f7 72 3e 85 0b 0d 3e 23 82 eb be
       1.2545182 0.23727037 0.13773926 -0.45997724

net.2.bias f4 [64]
000000 50 19 47 3e 9a f8 72 bd f1 ab e5 3e 1c e2 77 3e
       0.1944325 -0.059319116 0.44857743 0.24207348
000010 98 71 ea bd 38 57 70 3e 4f 05 37 be 31 bf 82 be
       -0.114474475 0.23470771 -0.17873119 -0.25536492
000020 19 0c b8 bd 98 fb b5 3e f3 38 00 be 59 22 3c be
       -0.089866824 0.35543513 -0.12521724 -0.18372478
000030 92 2e da 3e 13 84 6b 3b 70 4c f4 3e 79 88 20 3e
       0.42613655 0.0035936877 0.47714567 0.1567706
000040 08 9c cb be 0c 28 87 3c 23 b1 7f be 58 61 29 be
       -0.3976748 0.016498588 -0.24969916 -0.1654104
000050 3d d5 47 3e 8a a6 de 3e 41 ca db 3e ae 95 48 3d
       0.19514938 0.43486434 0.42927745 0.04897087
000060 7a 78 21 3e d5 b1 13 be 2f 98 cc 3e d9 51 1f bd
       0.15768614 -0.14423306 0.39959857 -0.038896415
000070 46 08 93 3d 23 e4 3b be 9a 30 1b 3f b2 ff ab 3e
       0.071793124 -0.18348746 0.60621035 0.33593518
000080 ad fe 1d be 13 bc 96 3e 3f fc 04 3e 8c 92 5f 3e
       -0.15429182 0.29440364 0.12986849 0.21833247
000090 0b b2 7a bd 72 3b 66 3d b3 30 c8 3e 62 e5 16 be
       -0.06120495 0.056209035 0.39099655 -0.1473594
0000a0 45 86 87 3d 43 ee 8d bc e5 f8 f7 3e ac ed af be
       0.06617407 -0.017325526 0.4843208 -0.34361017
0000b0 c8 f7 3b 3e e0 23 a3 3d e6 a5 d5 3e 26 5b 81 bd
       0.1835624 0.07965827 0.41728133 -0.06316213
0000c0 06 bd 0e 3f 1a 3d e8 3e 6e e1 53 bd bb be c2 3e
       0.55757177 0.45359117 -0.05172866 0.3803614
0000d0 48 98 1d 3e c0 3a b6 be 7a f4 c6 bd f1 f7 a7 3e
       0.15390122 -0.35591698 -0.09714599 0.32806352
0000e0 b9 82 2f bf 92 34 ba be eb 5b 5d 3f ca 69 67 3e
       -0.6855884 -0.36368233 0.8646838 0.22598949
0000f0 c4 fc 49 3e f0 32 2e 3f 34 75 3a 3e 5c 40 02 bb
       0.19725329 0.68046474 0.18208772 -0.0019874787

net.4.weight f4 [4, 64]
000000 c3 57 d7 3f 9f 64 e2 be 3b 4e 9a 3f 6d 86 97 3f
       1.6823658 -0.44217393 1.2055124 1.1837898
000010 69 be 40 bf 0e 74 3f bf 4b dd ac be b3 66 fd be
       -0.7529054 -0.7478646 -0.33762583 -0.49492416
000020 76 f0 3f bf 07 63 95 3f 0d 63 5f bf cf 76 78 bf
       -0.7497629 1.1670846 -0.87260514 -0.9705629
000030 6e 2f 9e 3f 63 e7 67 bf 66 46 95 3f 25 69 50 bf
       1.2358224 -0.90587443 1.1662109 -0.8141044
000040 f0 70 f0 be d8 bf d9 3f fd 9c c9 be 3d dc bb be
       -0.46961164 1.7011671 -0.39377585 -0.36691466
000050 66 90 8a bf 64 09 ba 3f 68 0c 9d 3f 8e b3 a7 3f
       -1.0825317 1.4534116 1.2269411 1.3101671
000060 1a 4e 82 3f 3c 75 df 3d b0 f8 ba 3f 0e a4 3a bf
       1.0180085 0.109110326 1.4607143 -0.7290658
000070 26 c6 8a be ad 4e ad be 95 fa 17 40 01 96 3d bf
       -0.271043 -0.33849087 2.3746693 -0.7405701
000080 28 0e 98 3d da ed b5 3f c8 21 27 bf 28 15 ba 3f
       0.07424575 1.4213212 -0.6528592 1.4537706
000090 70 10 8d bd ca 0a 66 bf cd 2b 15 3f d7 ac ac bd
       -0.06887901 -0.8986021 0.5826996 -0.08431404
0000a0 f6 ca 3e bf 26 09 f8 bd a8 aa ad 3e a6 84 40 bf
       -0.74528444 -0.1211112 0.33919263 -0.75202405
0000b0 0f 92 30 bf 01 f4 e0 be db 9b 55 bc 30 21 39 bf
       -0.6897287 -0.4393616 -0.013037647 -0.72316265
0000c0 57 98 6e 3f 4f 44 79 bf da ce c3 3e 54 fe c2 3f
       0.932012 -0.97369856 0.38243753 1.5233865
0000d0 ce a7 3e bf b3 65 08 bf 23 02 1e 40 8c 32 a0 3f
       -0.744748 -0.5328018 2.4688804 1.2515426
0000e0 14 21 e8 be b8 60 07 bf f2 bb 8c 3f c0 95 74 3f
       -0.45337737 -0.52881956 1.0994856 0.95541
0000f0 64 55 b3 3f cb 10 94 3f 08 b9 51 bf c7 b1 cb be
       1.4010434 1.1567625 -0.8192296 -0.3978407
000100 e9 5a ad 3f b7 a9 55 bf 09 66 99 3f 37 f1 7d 3f
       1.3543369 -0.8346209 1.1984264 0.9919619
000110 11 da 8a bf 09 b7 70 bf a4 ed f1 bc 49 70 f8 be
       -1.0847799 -0.9402929 -0.029532261 -0.48523167
000120 ee 24 c7 be 3c 88 c6 3f 6e 25 6e bf 6f 63 7d bf
       -0.38895363 1.5510325 -0.93025863 -0.9897985
000130 e0 9f 29 3f 94 08 ea be bc fb 8f 3f 81 ff 65 bf
       0.66259575 -0.4570967 1.1248698 -0.89842993
000140 7e ed 12 bf d5 25 ab 3f 4a ac c4 be 28 2a d8 bc
       -0.57393634 1.337092 -0.38412696 -0.02638729
000150 0e 0f 83 bf 97 5e b4 3f c1 55 6e 3f 31 29 99 3f
       -1.0238969 1.4091367 0.930996 1.1965696
000160 eb 0b 98 3f 4e b1 05 3d bd 64 aa 3f 0a 8e dd be
       1.1878637 0.032639794 1.3311993 -0.4327243
000170 1c 07 a7 be da f4 71 3d 89 bb fd 3f 4f 95 37 bf
       -0.32622612 0.0590714 1.9822856 -0.717122
000180 1d 93 02 3d 01 88 ec 3f 77 87 5d bf b0 7b dc 3f
       0.03187858 1.8479005 -0.8653483 1.7225246
000190 1e b5 8e 3d c2 8f 3c bf 56 3e 76 3f a9 77 e7 3d
       0.06968139 -0.73656857 0.9618887 0.1130212
0001a0 cd 46 3b bf 24 7c 35 bd 6f 27 07 3f 68 9c 6d bf
       -0.7315491 -0.044307843 0.52794546 -0.9281678
0001b0 1e 6e 42 bf f9 46 10 bf 74 b8 45 3f 56 e5 0f bf
       -0.75949275 -0.56358296 0.7723458 -0.56209314
0001c0 e4 4f 8c 3f d3 09 c5 bf 43 f9 52 3e b9 bd 07 40
       1.0961881 -1.5393623 0.20602898 2.1209548
0001d0 f7 dc 2e bf ca 6e 6d bf 50 95 0f 40 66 18 d7 3f
       -0.68305916 -0.92747176 2.2434883 1.6804321
0001e0 c8 d5 21 bf 9d c1 47 bf 48 14 9d 3f d2 5a 4c 3f
       -0.6321683 -0.78029805 1.2271814 0.7982608
0001f0 30 79 be 3f f6 63 95 3f 0b ad 30 bf be 97 25 bf
       1.4880733 1.1671131 -0.6901404 -0.64684665
000200 00 56 a8 3f a3 4b ba bf 6a c8 8b 3f d7 8c 77 3f
       1.3151245 -1.4554332 1.0920537 0.9669928
000210 83 f9 a0 bf 89 c4 31 bf 06 cc 15 bf eb f0 c7 be
       -1.2576145 -0.69440514 -0.5851444 -0.39050993
000220 c3 d2 2d bf 2b 91 00 40 5e 5e 0c bf 1b f4 3f bf
       -0.6789972 2.0088603 -0.5483149 -0.7498185
000230 a8 ba 08 3f d1 6a 02 bf 81 31 9e 3f b0 29 45 bf
       0.53409815 -0.5094424 1.2358857 -0.77016735
000240 84 c4 f8 be 94 bc c3 3f e4 8b 2e bf 51 e3 71 bf
       -0.4858743 1.5291924 -0.68182206 -0.9448748
000250 be c3 8c bf a5 c7 b5 3f e4 bd b7 3f 27 24 b2 3f
       -1.0997236 1.4201552 1.4354825 1.3917283
000260 bd bd 7a 3c d8 43 b1 3d 9e d8 b1 3f d1 2b 7d bf
       0.015304026 0.08655518 1.3894231 -0.98894984
000270 2c 66 98 bf ea 3f 28 bf 79 aa d9 3f 16 d3 36 bf
       -1.190618 -0.65722525 1.7005149 -0.7141584
000280 ef ec b7 bb 21 3f ba 3f bd bf c9 be d7 0f bc 3f
       -0.0056129615 1.4550515 -0.39404097 1.4692334
000290 5a 37 9b 3d 0e 4b 3e 3d e7 fe 99 3f bb de 94 3d
       0.07578917 0.046458296 1.2030915 0.07269045
0002a0 5e 19 dc be fe 46 f7 bd 7f 40 13 3f cb 0d 28 bf
       -0.42988104 -0.120740876 0.5752029 -0.65646046
0002b0 f4 9c 88 be e8 7b 4f bf c1 0c 30 3f 3c b6 db be
       -0.26682246 -0.8104844 0.6876946 -0.4291247
0002c0 e7 eb 96 3f ee e2 2e bf 4c 4b 03 40 a1 6c 77 3f
       1.1790742 -0.6831502 2.0514708 0.9665013
0002d0 c2 bc e3 be 3d 2e 47 bf fb 7a 13 40 c4 d3 c3 3f
       -0.44479948 -0.7780493 2.3043811 1.5299001
0002e0 42 d0 ab bf 9b 36 83 bf 94 ce 9e 3f 90 b7 83 3f
       -1.342293 -1.0251039 1.2406793 1.0290394
0002f0 db 57 f0 3f 66 15 89 3f 2e c4 a9 be e1 6e f1 be
       1.8776811 1.0709655 -0.33157486 -0.47154906
000300 58 af 02 40 04 1f 85 be e4 57 94 3f 79 88 9f 3f
       2.0419521 -0.26000226 1.1589322 1.2463523
000310 50 d0 af be d3 63 46 bf 83 5b 07 bf 8e 78 13 bf
       -0.34338617 -0.7749607 -0.5287401 -0.57605827
000320 25 87 61 bf ab a9 38 3f af bf 03 bf f5 87 08 bf
       -0.8809684 0.7213389 -0.5146436 -0.53332454
000330 a8 9c a4 3f 0b 17 2f bf 2c 56 c3 3f 25 0e 3f bf
       1.2860308 -0.68394536 1.5260673 -0.7463096
000340 ee b6 40 bf 1b fb dd 3f 43 2d e5 be 91 a5 0d bf
       -0.7527913 1.7342256 -0.44761094 -0.5533076
000350 d9 a4 a2 bf fd f5 b1 3f 3d a0 98 3f a3 5e d1 3f
       -1.2706558 1.3903195 1.1923901 1.6357006
000360 ca 63 b4 3f 3f 11 a8 3b ce 44 9e 3f a5 93 17 bf
       1.4092953 0.005129009 1.2364748 -0.5920966
000370 4b ac 3b bf eb 0a 59 bf 24 1c 0d 40 61 9e 81 bf
       -0.73309773 -0.84782284 2.2048426 -1.0126458
000380 c0 6d e0 3c c4 0b 94 3f b5 90 20 bf bf 44 79 3f
       0.027396083 1.156609 -0.62720805 0.97370523
000390 f8 e1 02 bd cf 70 0f bf 98 cc e1 3e 34 a2 33 3e
       -0.03195378 -0.5603151 0.44101405 0.17542344
0003a0 5c 55 dd be ed d5 be 3d 0a a7 68 be 4c c1 6a bf
       -0.43229187 0.09318147 -0.2271997 -0.917012
0003b0 04 d4 8b bf 7e 6f 0d bf 2f 5e df be 2f c7 f8 be
       -1.0924077 -0.5524825 -0.43626544 -0.48589465
0003c0 74 f0 92 3f ba 4e 20 bf 72 1c 9a 3f d7 bb 57 3f
       1.147963 -0.6262013 1.2039931 0.84270996
0003d0 50 60 20 bf 76 4f 42 bf 3f 82 16 40 32 96 92 3f
       -0.6264696 -0.759025 2.3516996 1.1452086
0003e0 0c 3b 8b bf 87 c9 0b bf 84 bf 9b 3f 3d ae b0 3f
       -1.0877395 -0.5460438 1.2167821 1.3803173
0003f0 cc 66 ae 3f e3 c4 93 3f 71 17 da be e4 15 2e bf
       1.3625121 1.154446 -0.4259601 -0.6800215

net.4.bias f4 [4]
000000 1e a1 3d 3e 4a ec ea bd f8 6a d2 3e ca 76 42 3e
       0.18518493 -0.1147085 0.41097236 0.18990627
