lunar_lander_model_SARSA.pth (torch, 76065 bytes, 6 tensors)

layers.0.weight f4 [128, 8]
-2.509039 -0.058385 -1.019429 -0.9436316 -0.54284096 2.35808 0.692684 -1.6400192
0.333308 0.5632988 1.2497305 -1.2469012 0.799279 -2.018513 -3.220886 0.9320681
-0.34506077 0.12602217 1.0114478 -1.1764487 -0.013267454 1.2604197 -0.28812495 -2.315476
-0.9429644 0.053150687 -0.5956044 0.21175963 2.1337109 1.9474663 0.8223604 -1.5286276
-0.28612894 0.9119135 0.72317606 -0.9600566 -0.20458679 2.0010855 -0.66413265 -0.7907099
-0.703666 0.44829026 0.21870473 0.81424576 -3.6736124 -0.4815278 1.6314832 0.98401225
-1.1739198 0.3053506 -0.041146923 -0.96240234 1.2504406 0.3560045 1.5219063 -1.3424381
0.24628949 -1.6618204 -0.29068446 3.4484735 1.5548074 -0.49751246 0.61677736 2.492088
-3.1376128 0.16047546 -0.5096035 -0.39168143 -1.3967828 -0.37948966 0.7185262 -0.5411411
-0.13058893 -0.19328912 0.38398346 -2.051959 -1.9517034 0.48037106 0.09362582 -1.7207353
-1.689171 -0.3974645 0.6139419 -0.18014137 1.5904886 1.8592728 1.5545101 -1.2376176
-0.8837771 0.8468497 -1.154426 -0.6991764 -3.0895376 -1.8270378 -0.4225516 0.7523822
-0.19143571 -0.4466242 -1.2972294 -0.024136469 -1.6217458 -0.27371052 -1.4714525 0.5709959
0.5986528 0.31831285 -0.27259055 -2.2405193 0.10557732 -0.22101758 0.66743296 0.0031483453
-2.5334237 0.18270467 0.08800429 -0.12636603 -1.4504758 0.69387615 0.5723238 -0.85335004
2.2113276 -0.58134556 1.0626667 3.2823427 -0.27623248 -0.31039655 1.9522092 1.1968298
0.693271 -0.40114772 0.20346692 -1.2952094 1.6965512 0.3638644 -3.0747662 -2.226706
2.0519218 -0.97076154 0.7971638 3.6263716 1.2064215 -0.7310817 -1.5079473 1.0473013
-0.95123094 -0.38203546 1.9277477 0.22850108 -2.011773 1.7348483 -0.006451931 -0.5223852
-0.69172776 0.70295787 0.97720003 0.42416996 2.5572512 1.1160386 0.3483642 -0.36024746
-1.2707841 -0.46493536 0.09917716 -0.5955835 1.2128242 2.418251 0.22881529 -2.3483102
-0.33004022 -1.5144926 0.5147877 -0.20201074 2.8979075 1.3829747 0.836977 -1.7526908
1.2591422 -0.6814858 0.4281615 0.5130939 0.6206736 -0.4681447 -1.2485685 2.0070739
0.27830267 -1.7590417 0.43086773 -0.44319817 0.15414917 -1.1502715 1.6214069 -0.5824464
-0.38583478 -0.01520862 0.28503197 -1.2591031 -0.530634 -1.3934956 0.5653701 0.6273057
1.8119204 -0.8419331 1.7663864 0.48450142 -1.1284078 -0.6293257 1.5058707 -0.48995617
0.938137 0.045768663 -1.1636504 -0.1451886 -4.2919884 -1.7074409 0.0073515316 1.6712351
0.6056105 -1.059325 -0.48692772 -0.35053593 0.092107244 -0.009541299 -0.17800802 -0.039299943
1.849172 -0.10006711 -1.9620328 -0.8714542 0.47193572 -1.0936188 0.15050495 -3.787808
-2.2042694 -1.1905707 -1.5396012 0.058395207 0.6209378 0.5860948 0.55774266 -1.1149067
1.1444117 -0.17400174 0.5895443 -0.06599992 0.5519553 0.05910143 -1.1842679 -1.0494817
-1.8622414 0.562754 -0.11762656 -0.033520248 -2.032532 0.18598418 0.43645957 2.2948797
00000000: 1894 20c0 1c25 6fbd a67c 82bf d791 71bf
00000010: a0f7 0abf c8ea 1640 bd53 313f 26ec d1bf
00000020: 59a7 aa3e 5a34 103f 2bf7 9f3f 759a 9fbf
00000030: 8c9d 4c3f 512f 01c0 ff22 4ec0 049c 6e3f
00000040: ceab b0be f50b 013e 1f77 813f df95 96bf
00000050: bc5f 59bc 6f55 a13f 1d85 93be c230 14c0
00000060: 1d66 71bf 89b4 593d 8879 18bf 84d7 583e
00000070: b88e 0840 9346 f93f 3686 523f 12aa c3bf
00000080: 7e7f 92be 2a73 693f 1122 393f 45c6 75bf
00000090: 337f 51be c911 0040 9904 2abf f76b 4abf
000000a0: 7423 34bf 4d86 e53e 22f4 5f3e 6972 503f
000000b0: 771c 6bc0 d08a f6be 71d4 d03f 3ae8 7b3f
000000c0: 0143 96bf ea56 9c3e ad89 28bd 0060 76bf
000000d0: 700e a03f 3946 b63e d3cd c23f 03d5 abbf
000000e0: 5033 7c3e 88b6 d4bf 98d4 94be cab3 5c40
000000f0: ee03 c73f f4b9 febe 1fe5 1d3f 5f7e 1f40
00000100: a6ce 48c0 ae53 243e 6075 02bf 788a c8be
00000110: c7c9 b2bf 784c c2be 55f1 373f 3988 0abf
00000120: 1bb9 05be 95ed 45be 7b99 c43e 4c53 03c0
00000130: 6bd1 f9bf 32f3 f53e e5be bf3d 0e41 dcbf
00000140: c136 d8bf 7880 cbbe 4c2b 1d3f fb76 38be
00000150: 2195 cb3f a7fc ed3f 30fa c63f 416a 9ebf
00000160: 373f 62bf 24cb 583f 3bc4 93bf 39fd 32bf
00000170: fcba 45c0 60dc e9bf af58 d8be 1f9c 403f
00000180: b907 44be edab e4be 9d0b a6bf d8b9 c5bc
00000190: 5e95 cfbf c923 8cbe 8e58 bcbf ca2c 123f
000001a0: 4f41 193f e7f9 a23e fd90 8bbe ab64 0fc0
000001b0: ec38 d83d 6f52 62be e3dc 2a3f 7854 4e3b
000001c0: 9d23 22c0 ef16 3b3e 983b b43d 1966 01be
000001d0: 31a9 b9bf dea1 313f d083 123f 2675 5abf
000001e0: 6486 0d40 10d3 14bf 7605 883f e711 5240
000001f0: 586e 8dbe 4cec 9ebe fee1 f93f b831 993f
00000200: 357a 313f 3c63 cdbe a259 503e 6cc9 a5bf
00000210: 9728 d93f 6f4c ba3e f8c8 44c0 5a82 0ec0
00000220: b052 0340 d483 78bf ed12 4c3f 7916 6840
00000230: 056c 9a3f 2c28 3bbf 6b04 c1bf f80d 863f
00000240: df83 73bf 279a c3be 70c0 f63f 30fc 693e
00000250: e4c0 00c0 820f de3f b86a d3bb 09bb 05bf
00000260: 1215 31bf 0cf5 333f c829 7a3f ce2c d93e
00000270: 01aa 2340 5ada 8e3f cb5c b23e 5b72 b8be
00000280: 0ea9 a2bf 020c eebe 651d cb3d 2978 18bf
00000290: d33d 9b3f a0c4 1a40 8e4e 6a3e b74a 16c0
000002a0: 08fb a8be e5da c1bf 20c9 033f e7db 4ebe
000002b0: 5177 3940 5105 b13f 2044 563f 2c58 e0bf
000002c0: 922b a13f da75 2ebf fc37 db3e 1f5a 033f
000002d0: 77e4 1e3f aab0 efbe 18d1 9fbf e673 0040
000002e0: b07d 8e3e 4728 e1bf b29a dc3e dfea e2be
000002f0: 48d9 1d3e 193c 93bf 438a cf3f 351b 15bf
00000300: 238c c5be 932d 79bc b6ef 913e 4a2a a1bf
00000310: a1d7 07bf 105e b2bf 18bc 103f 1b97 203f
00000320: 02ed e73f ed88 57bf f318 e23f 9210 f83e
00000330: ab6f 90bf 7d1b 21bf 5fc0 c03f 89db fabe
00000340: bf29 703f ec77 3b3d 7ff2 94bf 52ac 14be
00000350: f857 89c0 6c8d dabf 1ee5 f03b 08eb d53f
00000360: 4a09 1b3f f697 87bf 974e f9be 7279 b3be
00000370: b9a2 bc3d 1c53 1cbc bc47 36be faf8 20bd
00000380: abb1 ec3f fcef ccbd e423 fbbf 9f17 5fbf
00000390: 8fa1 f13e b3fb 8bbf f81d 1a3e 726b 72c0
000003a0: c012 0dc0 9f64 98bf a711 c5bf d02f 6f3d
000003b0: c8f5 1e3f 4f0a 163f 39c8 0e3f 43b5 8ebf
000003c0: 157c 923f 832d 32be 60ec 163f f72a 87bd
000003d0: f14c 0d3f 5714 723d 1796 97bf 6b55 86bf
000003e0: ed5d eebf a510 103f 32e6 f0bd 874c 09bd
000003f0: 0115 02c0 a372 3e3e a177 df3e 4fdf 1240

layers.0.bias f4 [128]
-0.9340481 -0.42886811 0.7466282 0.48242074 -1.3962145 -0.96506894 -0.40164188 -0.67109656
-0.30170438 -0.53521645 -0.36776784 -1.1339339 0.34840614 0.35876843 -0.20990853 -0.94150233
-0.1506427 -0.46029654 -0.8731743 -1.8652778 0.36324695 -0.2881376 1.0915977 0.4683567
0.31887847 0.90491325 -1.29316 1.3640399 -0.07280088 -0.1348219 1.3450814 -0.48586896
-0.08183965 -0.10679538 -0.50737846 -1.1544266 -0.5086022 0.272254 -0.41541284 0.3999644
1.0391248 -0.6300889 -1.4666804 0.4152115 -1.4506972 0.38913208 0.9522439 0.8376707
0.12739731 -0.9182851 -0.45979357 -0.6638086 -0.4851865 0.16348298 1.2740635 -1.3490864
-0.32357696 -0.02713582 0.7724013 1.0240943 -1.0100285 1.2772124 0.0014195357 -0.32003686
-0.3113712 -0.544237 0.74977607 -1.0243324 1.3952843 0.5678141 -0.16121842 1.0644658
-1.2843424 -0.12676188 -0.2156337 -0.042938046 0.5407351 -0.1249302 -0.30928838 -0.1141146
-0.69290316 0.5549627 0.43341616 1.5104783 -0.8876064 -0.6093254 -0.119891465 0.52129465
-1.2558436 -0.31496683 0.058705438 0.357853 -0.4232777 0.091195434 -0.8103223 0.41264868
1.7918603 -0.29807523 -1.160915 -1.1364684 -0.44521746 0.86374 -0.44679585 -0.6114663
1.4898945 -0.12900409 -0.29584625 -0.3990295 0.07072324 1.0451043 0.51535887 0.191958
0.8975381 -0.2568062 0.20274101 -1.0089693 -1.1287154 0.8807727 -0.9911949 0.18728343
-0.3812893 -1.0974172 -0.36917946 -1.2837521 -1.5171196 -0.41336414 1.5215048 0.61556923
00000000: c71d 6fbf 9a94 dbbe 0723 3f3f daff f63e
00000010: 28b7 b2bf c20e 77bf 01a4 cdbe fccc 2bbf
00000020: ff78 9abe f203 09bf 114c bcbe bf24 91bf
00000030: 4a62 b23e 7fb0 b73e 43f2 56be 4c06 71bf
00000040: 1442 1abe fdab ebbe 5a88 5fbf 6cc1 eebf
00000050: 81fb b93e c686 93be 79b9 8b3f 73cc ef3e
00000060: 0a44 a33e 65a8 673f 4486 a5bf dc98 ae3f
00000070: a118 95bd c10e 0abe a12b ac3f d1c3 f8be
00000080: 8c9b a7bd 89b7 dabd 8ee3 01bf 40c4 93bf
00000090: c133 02bf e064 8b3e feb0 d4be 22c8 cc3e
000000a0: 0b02 853f 824d 21bf 2fbc bbbf 9a96 d43e
000000b0: 72b0 b9bf 523c c73e 42c6 733f 9671 563f
000000c0: 7174 023e bb14 6bbf 106a ebbe 5cef 29bf
000000d0: 5d6a f8be 1568 273e 8314 a33f ddae acbf
000000e0: e1ab a5be f04b debc 17bc 453f 8615 833f
000000f0: 9d48 81bf b27b a33f b70f ba3a dfdb a3be
00000100: 0c6c 9fbe 1e53 0bbf 53f1 3f3f 531d 83bf
00000110: ad98 b23f 445c 113f 7116 25be 6a40 883f
00000120: 5565 a4bf decd 01be 15cf 5cbe cedf 2fbd
00000130: 9e6d 0a3f 68db ffbd 0c5b 9ebe eab4 e9bd
00000140: 1a62 31bf 0912 0e3f b9e8 dd3e 5a57 c13f
00000150: 2c3a 63bf c0fc 1bbf a889 f5bd 9173 053f
00000160: 7cbf a0bf 5543 a1be 1d75 703d 8238 b73e
00000170: dbb7 d8be acc4 ba3d 4871 4fbf b046 d33e
00000180: ae5b e53f 519d 98be dd98 94bf cc77 91bf
00000190: 8bf3 e3be 111e 5d3f 6dc2 e4be 0e89 1cbf
000001a0: ddb4 be3f a619 04be 2979 97be 984d ccbe
000001b0: 59d7 903d fac5 853f 8fee 033f a390 443e
000001c0: 0fc5 653f 1a7c 83be 579b 4f3e e825 81bf
000001d0: bf79 90bf 527a 613f f3be 7dbf 3ac7 3f3e
000001e0: 5a38 c3be 2b78 8cbf 1705 bdbe fd51 a4bf
000001f0: fa30 c2bf 77a4 d3be abc0 c23f f295 1d3f

layers.2.weight f4 [128, 128]
-0.14983422 -0.08626086 0.40112653 -0.101792015 0.11402645 0.16247556 0.13440639 -0.36815524
-0.57883596 -0.18514971 -0.119588524 0.17901191 -0.02483724 -0.48662025 0.08734539 -0.5908991
-0.23255873 -0.58674616 -0.18651158 -0.85797286 0.0028912448 0.17453378 -1.1126208 -0.28388482
0.010496844 0.049591165 -0.6869 -0.14195152 -0.38882932 -0.79924905 -0.53265226 -0.08645772
0.18920553 -0.5692955 -0.2866035 0.10677827 0.31612587 -0.059035704 -0.22555761 0.0030354636
-0.3147877 -0.103256986 0.0491521 -0.66951466 -0.1506482 0.1799295 0.21693438 -0.48983485
0.24566494 0.0032946991 0.07059996 -0.1757418 -0.16121672 0.16311577 0.055673935 -0.31009477
-0.0808065 -0.5106227 -0.20238926 0.1253647 -0.24904686 -0.21186768 0.14497596 -0.076397024
0.06355701 -0.49612355 -0.60372865 -0.19188784 -0.14101335 0.018182721 -0.054059375 -0.12924105
-0.6871811 -0.10733777 0.11273161 -0.39063722 -0.81426555 -0.40608457 -0.3444601 -0.5760226
-0.30589804 -0.71386313 -0.54672366 0.22834507 -1.2008164 0.07445368 0.17230709 -0.71157384
-0.8785242 0.22701693 -0.26979136 -0.53335756 -0.06702292 0.23652896 -0.53565645 0.039355434
-0.12941235 -0.1411645 0.16677019 0.02020602 -0.12663886 -0.0039645466 0.15258814 0.20767342
-0.06754733 -0.71037626 -0.049779914 -0.17604546 -0.049365964 -0.71242005 -0.031591207 -0.20618796
-0.43984598 -0.0828202 0.15138927 0.049401358 -0.42998615 -0.039681137 -0.9837245 -0.21677297
0.0005681747 -0.035667278 -0.6246714 -0.2935364 -0.16945456 0.09150665 -0.3778894 -0.0024325335
-1.9758918 -1.4023861 -1.850893 -3.0491996 -1.8424021 -1.7943776 -1.9783361 -1.8966047
-3.8604956 -2.9261568 -4.6091723 1.2701994 0.6885801 0.92234826 -0.9731819 -0.3225752
-1.19355 -1.1753964 -0.97237396 -3.5172544 -1.3632 -1.0402739 0.15535432 0.6834521
0.69359374 1.7223577 -0.46551824 0.81795627 0.013697366 0.76848435 0.18605678 0.7965802
0.12219946 0.3539404 -5.089037 -4.714905 -2.673839 0.45387328 -4.366633 -2.7075753
-2.8604033 0.1164001 -1.0648681 0.547047 -2.176168 1.3187338 0.44625998 0.000475893
-4.737235 -7.590424 -1.269068 -5.7435904 -0.6375628 -1.170853 0.565654 -2.020136
-1.0982337 0.8270734 0.8188346 -4.039262 0.52613384 0.40990254 -6.2996535 1.5427924
-2.9803398 0.56387496 -4.2216434 0.060819767 0.4943741 -2.6328983 -1.1849326 -1.3770546
-1.1236944 -0.15892707 0.39948034 0.73470044 -0.08258587 -0.13422826 -9.465809 -2.6975114
-2.8252556 -0.25614405 -1.8757297 -0.24375032 0.44557232 -2.8272529 -1.5426917 1.4783661
-2.4700322 -1.4262944 0.26211226 1.0283186 0.15564469 -1.4161665 -2.1997633 1.4550644
-2.6871386 -1.3966203 -0.9755537 -3.5780053 -0.1501047 -3.5190513 -0.17897508 -2.5281231
-0.8295361 0.43143475 0.7809599 -0.8140481 -1.2862567 -4.6452103 -0.80339396 -3.5963187
-0.81065667 -1.1273471 -0.36417046 -0.88346595 -4.3071957 1.1153325 -2.3449016 1.4126881
-0.7750486 -3.0155666 1.2682009 -2.8461647 -0.47666788 -1.9665811 -2.5415642 0.52088016
00000000: 246e 19be 89a9 b0bd 7560 cd3e 5578 d0bd
00000010: b386 e93d fe5f 263e d4a1 093e d87e bcbe
00000020: 982e 14bf e397 3dbe d4ea f4bd e64e 373e
00000030: 7877 cbbc 4a26 f9be 24e2 b23d 2a45 17bf
00000040: e023 6ebe ff34 16bf e4fc 3ebe 1ca4 5bbf
00000050: 0a7b 3d3b fcb8 323e 5c6a 8ebf 5a59 91be
00000060: f4fa 2b3c 1b20 4b3d aed8 2fbf bd5b 11be
00000070: a314 c7be 969b 4cbf e65b 08bf bf10 b1bd
00000080: 18bf 413e 5abd 11bf b2bd 92be 91ae da3d
00000090: 40db a13e 6ccf 71bd 93f8 66be a1ee 463b
000000a0: da2b a1be 6678 d3bd b653 493d 5065 2bbf
000000b0: 8643 1abe 703f 383e 0c24 5e3e a2cb fabe
000000c0: 978f 7b3e e1eb 573b b696 903d a9f5 33be
000000d0: ff15 25be d207 273e 5a0a 643d bec4 9ebe
000000e0: e17d a5bd 2bb8 02bf 213f 4fbe 9b5f 003e
000000f0: 2406 7fbe d7f3 58be 9474 143e 0b76 9cbd
00000100: 2d2a 823d e803 febe f68d 1abf 3f7e 44be
00000110: ce65 10be eef3 943c 5d6d 5dbd c457 04be
00000120: 1aeb 2fbf e8d3 dbbd d5df e63d 9a01 c8be
00000130: b573 50bf 51ea cfbe 135d b0be 3876 13bf
00000140: ab9e 9cbe bcbf 36bf 15f6 0bbf 4ad3 693e
00000150: 5ab4 99bf 2c7b 983d 4571 303e b429 36bf
00000160: f6e6 60bf 2077 683e 1822 8abe 1f8a 08bf
00000170: 5043 89bd a634 723e c820 09bf 2a33 213d
00000180: ac84 04be 6d8d 10be cec5 2a3e 1887 a53c
00000190: 9ead 01be 07e9 81bb 1140 1c3e 57a8 543e
000001a0: 4156 8abd 38db 35bf 06e6 4bbd 4345 34be
000001b0: f733 4abd 2961 36bf c865 01bd f022 53be
000001c0: 7e33 e1be a39d a9bd ca05 1b3e 1459 4a3d
000001d0: 2527 dcbe b088 22bd 5ed5 7bbf bcf9 5dbe
000001e0: 8ff1 143a da17 12bd 77ea 1fbf 674a 96be
000001f0: 7f85 2dbe d767 bb3d b87a c1be 246b 1fbb
00000200: 06ea fcbf 6381 b3bf 10ea ecbf 1626 43c0
00000210: d5d3 ebbf 2aae e5bf 1e3a fdbf f1c3 f2bf
00000220: 5c12 77c0 2746 3bc0 577e 93c0 e595 a23f
00000230: c946 303f 041f 6c3f 7322 79bf 9428 a5be
00000240: 3fc6 98bf 6473 96bf 80ed 78bf b21a 61c0
00000250: 567d aebf b227 85bf 3415 1f3e b8f6 2e3f
00000260: 5c8f 313f 3876 dc3f 6858 eebe 9565 513f
00000270: eb6a 603c 64bb 443f ab85 3e3e aeec 4b3f
00000280: b643 fa3d ad37 b53e 64d9 a2c0 80e0 96c0
00000290: 2e20 2bc0 1462 e83e 75bb 8bc0 ea48 2dc0
000002a0: d910 37c0 2d63 ee3d 994d 88bf 460b 0c3f
000002b0: 5646 0bc0 45cc a83f 307c e43e 4781 f939
000002c0: 6e97 97c0 c1e4 f2c0 d270 a2bf 7ecb b7c0
000002d0: 5137 23bf 83de 95bf b3ce 103f e949 01c0
000002e0: ec92 8cbf 15bb 533f 259f 513f a241 81c0
000002f0: b5b0 063f bfde d13e c396 c9c0 397a c53f
00000300: e3bd 3ec0 1c5a 103f b417 87c0 261e 793d
00000310: 9a1e fd3e 6881 28c0 dfab 97bf 5343 b0bf
00000320: 38d5 8fbf c7bd 22be b088 cc3e 5415 3c3f
00000330: c822 a9bd 2273 09be f473 17c1 07a4 2cc0
00000340: fdd0 34c0 5025 83be e917 f0bf af99 79be
00000350: 0e22 e43e b6f1 34c0 ec76 c5bf 1a3b bd3f
00000360: 0215 1ec0 d190 b6bf 9433 863e f29f 833f
00000370: 5261 1f3e f244 b5bf ecc8 0cc0 8d3f ba3f
00000380: 14fa 2bc0 74c4 b2bf e3bd 79bf 0afe 64c0
00000390: 0cb5 19be 2338 61c0 3e45 37be c5cc 21c0
000003a0: 7a5c 54bf 04e5 dc3e fdec 473f 7565 50bf
000003b0: 0fa4 a4bf 90a5 94c0 3aab 4dbf 162a 66c0
000003c0: 3287 4fbf e94c 90bf 8d74 babe d32a 62bf
000003d0: 8cd4 89c0 37c3 8e3f de12 16c0 f7d2 b43f
000003e0: 9669 46bf 0bff 40c0 6854 a23f 9027 36c0
000003f0: d00d f4be eeb8 fbbf fda8 22c0 6758 053f

layers.2.bias f4 [128]
-0.15074858 0.5344912 0.5257739 -0.95129806 0.199152 0.40018094 0.27234346 0.6282821
-0.19598342 -0.117811665 -0.28957555 -0.24313566 0.5024987 -0.0012387353 -0.028683294 -0.56232166
-0.36907312 0.011108992 -0.57220596 0.024645187 0.24351549 0.77910864 0.38758 -0.11077945
0.1827843 0.33249712 -0.05556962 -0.23022723 0.62030816 0.16254494 0.18618962 -0.6279514
0.33793333 -0.29897895 1.4760805 0.6827194 -0.043422244 -0.05549492 0.011395537 -0.13287233
-0.062491912 0.307247 0.50045115 -0.7705194 -0.082399584 0.0006856747 -0.025026072 -0.0120880725
0.1932097 0.37275913 -0.69700664 0.22190887 -0.12464697 -0.80329543 -0.073838905 -0.4363311
-0.16863506 6.997764e-05 -0.016449615 -0.1275265 -0.5046863 -0.072620824 -0.024473025 0.71626776
0.118705556 -0.16721274 -0.21438752 0.14949542 -0.061422132 -0.49175504 -0.02348816 0.72006714
0.40780166 0.7739037 0.22916739 0.18705621 0.24827638 1.1395992 0.014386775 0.34500423
0.78172374 0.65181 1.7187189 -0.16467415 -0.45970467 0.57740116 -0.1772901 0.7053417
-0.1135364 0.32751077 -0.08905247 -0.16276948 -0.0650452 -0.32618958 0.6168346 0.2615518
-0.11460897 -0.5846474 -0.043889493 1.3093911 -0.11995722 -0.1476817 -0.05834141 0.11449589
-0.24724983 -0.15390447 0.5343682 1.0516311 0.436775 0.3421648 -0.01666409 0.17075412
0.5268153 -0.3893418 -0.08044418 0.60654527 -0.024936749 -0.033872157 -0.18092741 -1.0308481
-0.119391866 -0.08904139 -0.10771892 -0.12618448 -0.1172878 -0.10578778 -0.023422828 0.02075293
00000000: d65d 1abe 6ad4 083f 1e99 063f 4588 73bf
00000010: 80ee 4b3e 84e4 cc3e 9a70 8b3e 19d7 203f
00000020: e1af 48be 3e47 f1bd 3f43 94be 8ef8 78be
00000030: c1a3 003f 0f5d a2ba 3af9 eabc 50f4 0fbf
00000040: 27f7 bcbe 7d02 363c 177c 12bf b4e4 c93c
00000050: 205c 793e aa73 473f e370 c63e 56e0 e2bd
00000060: cf2b 3b3e 103d aa3e f89c 63bd b0c0 6bbe
00000070: 84cc 1e3f 2e72 263e 7ea8 3e3e 6cc1 20bf
00000080: 9905 ad3e c513 99be 35f0 bc3f b3c6 2e3f
00000090: 86db 31bd a44e 63bd 59b4 3a3c af0f 08be
000000a0: 85f7 7fbd 7b4f 9d3e 911d 003f c240 45bf
000000b0: 1dc1 a8bd dabe 333a 7a03 cdbc 0d0d 46bc
000000c0: c3d8 453e 49da be3e 076f 32bf 143c 633e
000000d0: e946 ffbd c5a4 4dbf da38 97bd ca66 dfbe
000000e0: abae 2cbe f6c0 9238 58c1 86bc 4f96 02be
000000f0: 1f33 01bf 3aba 94bd a77b c8bc 535d 373f
00000100: e61b f33d d139 2bbe 6788 5bbe 5415 193e
00000110: c695 7bbd 51c7 fbbe 3e6a c0bc 5256 383f
00000120: 61cb d03e 8e1e 463f dbaa 6a3e aa8b 3f3e
00000130: 2a3c 7e3e 63de 913f 82b6 6b3c 65a4 b03e
00000140: 0c1f 483f 05dd 263f fbfe db3f 57a0 28be
00000150: 695e ebbe 90d0 133f 898b 35be 4691 343f
00000160: c685 e8bd 7eaf a73e 2461 b6bd 0bad 26be
00000170: 6b36 85bd 5202 a7be dfe8 1d3f 1eea 853e
00000180: 1cb8 eabd 74ab 15bf 78c5 33bd 219a a73f
00000190: 22ac f5bd df39 17be 67f7 6ebd d27c ea3d
000001a0: 0f2f 7dbe 2299 1dbe 5bcc 083f d99b 863f
000001b0: f9a0 df3e 3a30 af3e 2183 88bc 2bda 2e3e
000001c0: 5edd 063f cf57 c7be ebbf a4bd 8d46 1b3f
000001d0: 2748 ccbc 88bd 0abd 0945 39be d5f2 83bf
000001e0: b983 f4bd 555b b6bd bd9b dcbd 8136 01be
000001f0: 9634 f0bd 43a7 d8bd 3be1 bfbc 0c02 aa3c

layers.4.weight f4 [4, 128]
-0.32689467 -2.158294 1.0462265 0.9977354 -1.9435669 1.5760151 -1.6593972 -0.908749
-2.6660361 -0.04527289 -0.19037412 -0.3512674 -1.5751034 0.044384927 1.41366 2.9414835
-0.6469271 0.0030536768 2.0229287 0.0058473754 2.027565 1.586096 -0.35870808 -0.047198523
-0.95376843 -3.1095543 -0.0217486 -0.37410927 2.4536173 2.47729 -2.4690204 0.02131137
2.1567905 0.35096598 1.2326758 -0.83276516 0.019004567 -0.06464839 -2.0004704 -0.013935173
-0.04132373 -1.2146448 1.6821154 3.6099784 -1.6752596 -0.02681645 -0.09569597 0.05537765
-2.2499678 -1.5392065 0.46817198 0.90312934 -0.34903422 2.369301 0.022371028 1.9924561
1.3344249 -0.03686762 0.070214204 -0.04631163 -0.95605725 -0.008654822 -1.2972171 1.5528868
2.0246377 -1.9685122 -0.63703203 -1.4482367 -0.034409776 -1.6816373 1.0895886 1.1711205
-1.5125989 -2.313054 -1.1354681 -2.2343507 -1.4111642 -1.3708593 -0.07269079 2.2916431
-1.327566 -1.1420023 0.7396244 3.483908 2.22785 -2.5618854 1.7669108 1.7290918
-0.03117973 -1.3436157 -0.019478839 -1.443913 -0.046987634 -1.9243208 -1.2092991 4.351679
2.4257352 1.5951204 2.9127903 -2.0041807 0.060854446 0.5585707 -0.87209284 1.0722641
-1.5065496 -1.3071672 -1.6259089 -1.2359141 -1.8724964 -1.8633842 -1.2715651 -1.1427022
-1.4171146 -1.1874883 -0.05507649 -1.263782 -0.44455826 -1.8828019 -2.1120117 -0.2393376
-0.09663221 -0.025556356 -0.013019005 -1.3756397 -0.060489424 0.0381458 -0.02662313 0.014209378
0.5680109 -1.936544 0.838083 -0.8568547 -2.037975 1.3956039 -1.7379969 -1.0588132
-3.3136919 -0.041522857 -1.9116589 0.17211749 -1.883692 0.033082146 1.3801024 -0.40133372
-1.2600023 -0.0016093958 2.3371813 -0.007840336 1.7979732 1.65436 -0.008930007 -0.038725305
-1.371091 -2.06698 -0.031727664 -1.3778659 2.069808 2.2472386 -2.3312867 -0.8744018
2.284429 -0.5110739 1.095222 -0.93860203 0.05516582 -0.012788124 -1.3740406 0.059588872
0.05439 -1.0709087 1.8240631 3.1692767 -1.5483786 0.10676699 0.0492668 0.0056382758
-1.3216562 -1.0541162 -0.06463436 2.6012738 0.63443613 0.3159458 0.0012028727 0.81302863
0.41282222 -0.054743197 0.032876693 -0.07592547 -0.5810363 -0.013907656 -0.6656688 1.3432566
1.0696647 -2.5963924 1.0712066 -1.7544943 -0.011434731 -1.424711 2.1613498 1.1803731
-1.6253481 -2.8925123 -0.76769686 -2.2474794 -0.96351975 -1.1239092 0.040541083 2.3638275
-1.0004245 -1.0425153 0.95001894 2.209626 1.6950238 -1.0515068 2.1597424 2.3148935
0.045272283 -1.4186367 0.009392382 -0.0039870813 -0.05238952 0.4898737 -0.73475116 3.9917037
2.1265767 1.6049216 3.2004611 -2.113489 -0.07111272 -0.59962565 -0.75695324 1.0841634
-1.0091792 -1.2285514 -1.7046283 -1.4211456 -2.8204954 -0.38264993 -1.5714937 -1.7805684
-0.4075872 -1.0189462 -0.07044014 -1.1437688 -1.29083 -1.6087763 -1.8811283 1.9541968
-0.055019803 0.028255813 -0.028099837 -0.32529187 0.05164877 -0.02215906 -0.023958765 -0.043871425
00000000: bd5e a7be 7d21 0ac0 c0ea 853f 966b 7f3f
00000010: cdc6 f8bf ddba c93f 2167 d4bf c6a3 68bf
00000020: 56a0 2ac0 1170 39bd 6ff1 42be 52d9 b3be
00000030: fd9c c9bf f8cc 353d d0f2 b43f 4441 3c40
00000040: 049d 25bf 3220 483b aa77 0140 579b bf3b
00000050: a0c3 0140 3205 cb3f 96a8 b7be 3d53 41bd
00000060: 2b2a 74bf f002 47c0 1f2a b2bc 408b bfbe
00000070: 1108 1d40 eb8b 1e40 6e04 1ec0 2f95 ae3c
00000080: db08 0a40 d0b1 b33e 52c8 9d3f 1930 55bf
00000090: 77af 9b3c 6066 84bd b507 00c0 5a50 64bc
000000a0: 1243 29bd 7b79 9bbf 8f4f d73f e309 6740
000000b0: e86e d6bf 2cae dbbc 40fc c3bd add3 623d
000000c0: 79ff 0fc0 b804 c5bf 3db4 ef3e 7c33 673f
000000d0: 9db4 b2be a1a2 1740 7243 b73c cd08 ff3f
000000e0: 6fce aa3f 8002 17bd 77cc 8f3d 44b1 3dbd
000000f0: 2bc0 74bf f4cc 0dbc 360b a6bf ffc4 c63f
00000100: aa93 0140 35f8 fbbf 8814 23bf d25f b9bf
00000110: 44f1 0cbd e43f d7bf a477 8b3f 47e7 953f
00000120: d79c c1bf 1409 14c0 0557 91bf 9aff 0ec0
00000130: 07a1 b4bf 5178 afbf e9de 94bd 48aa 1240
00000140: afed a9bf 222d 92bf 0658 3d3f 59f8 5e40
00000150: 1895 0e40 eef5 23c0 222a e23f e152 dd3f
00000160: a26c ffbc 99fb abbf 1692 9fbc 24d2 b8bf
00000170: 1b76 40bd 2550 f6bf 50ca 9abf f440 8b40
00000180: 3f3f 1b40 e82c cc3f 286b 3a40 7f44 00c0
00000190: 8342 793d 7dfe 0e3f 7a41 5fbf f33f 893f
000001a0: 9ed6 c0bf 4151 a7bf c81d d0bf 6f32 9ebf
000001b0: f6ad efbf 6083 eebf a5c2 a2bf 1144 92bf
000001c0: 0364 b5bf 9eff 97bf e397 61bd 9cc3 a1bf
000001d0: 249d e3be a7ff f0bf 332b 07c0 ea14 75be
000001e0: 1ce7 c5bd 905b d1bc aa4d 55bc f614 b0bf
000001f0: c2c3 77bd c53e 1c3d c018 dabc 73ce 683c
00000200: 2a69 113f ace0 f7bf 9c8c 563f d45a 5bbf
00000210: 2f6e 02c0 26a3 b23f af76 debf 3187 87bf
00000220: 8713 54c0 df13 2abd 3db1 f4bf 913f 303e
00000230: d21c f1bf 2581 073d 32a7 b03f 9d7b cdbe
00000240: c147 a1bf 5df2 d2ba 6194 1540 c174 00bc
00000250: fc23 e63f 12c2 d33f 2a4f 12bc 6d9e 1ebd
00000260: e97f afbf 6649 04c0 def4 01bd e95d b0bf
00000270: bc77 0440 c2d2 0f40 cd33 15c0 ccd8 5fbf
00000280: 1634 1240 bdd5 02bf 3c30 8c3f 3948 70bf
00000290: 8ef5 613d 4885 51bc 90e0 afbf 7613 743d
000002a0: 0cc8 5e3d 8913 89bf e67a e93f 6ed5 4a40
000002b0: 4531 c6bf a7a8 da3d fccb 493d 49c1 b83b
000002c0: 082c a9bf 48ed 86bf 055f 84bd 457b 2640
000002d0: 686a 223f a6c3 a13e b6a9 9d3a a522 503f
000002e0: 6f5d d33e 673a 60bd b6a9 063d d07e 9bbd
000002f0: ccbe 14bf f0dc 63bc 4569 2abf d5ef ab3f
00000300: c6ea 883f 4b2b 26c0 4c1d 893f 4593 e0bf
00000310: bd58 3bbc ee5c b6bf 8e53 0a40 7716 973f
00000320: 680b d0bf ec1e 39c0 c887 44bf b4d6 0fc0
00000330: 3ba9 76bf 42dc 8fbf 680e 263d f348 1740
00000340: e90d 80bf 2471 85bf 7134 733f 836a 0d40
00000350: 8af6 d83f c697 86bf 3839 0a40 3727 1440
00000360: 6e6f 393d e395 b5bf 81e2 193c 10a6 82bb
00000370: 6596 56bd bad0 fa3e a718 3cbf 1378 7f40
00000380: d519 0840 126e cd3f 5bd4 4c40 6743 07c0
00000390: 8ca3 91bd 1181 19bf b0c7 41bf dec5 8a3f
000003a0: c92c 81bf 2c41 9dbf 4331 dabf 19e8 b5bf
000003b0: ff82 34c0 b1ea c3be b526 c9bf aae9 e3bf
000003c0: 45af d0be d46c 82bf ec42 90bd 0467 92bf
000003d0: eb39 a5bf 62ec cdbf d0c8 f0bf 1f23 fa3f
000003e0: 725c 61bd bc78 e73c a131 e6bc a88c a6be
000003f0: a98d 533d eb86 b5bc 2c45 c4bc 86b2 33bd

layers.4.bias f4 [4]
1.2286444 0.38037166 0.23711534 0.18192075
00000000: 3844 9d3f 13c0 c23e 5dce 723e 6f49 3a3e
