lunar_lander_model.pth (torch, 23193 bytes, 6 tensors)

net.0.weight f4 [64, 8]
00000000: fd53 c2be ea57 39bf bdda e53e 75a4 82bf
00000010: da32 a3bf 5d3b fdbe c6fc 033f bf28 bdbe
00000020: f6af b6bd a75c 133f 6aed 7f3e 9794 13be
00000030: 98fe 0cbf cabe ac3e 5cab d0be f373 dabe
00000040: 29e8 60be 9046 3abf 9639 3c3e d0e2 f1be
00000050: c7f9 06bf f47f 96bf c2b2 f6be 90e4 6cbf
00000060: f9f2 f9bd 2405 273e 84c5 bdbe 8b5c 613e
00000070: 8f82 513f f171 9d3d af2b cabf 6076 483f
00000080: b16d c9be fe86 9bbc 49c6 0ebe 7e1a 2b3e
00000090: 5dc9 2d3f 68b9 393f 2e03 633e 5372 003f
000000a0: 71ba a0bd fb31 573f ebfd 55bf 4be1 3040
000000b0: 5d84 103f ca0f 0abf 8969 a73e 6209 483e
000000c0: d499 30be 8795 4c3f 5dca 6fbe d2a5 8cbe
000000d0: cb9a 1dbe b593 753f 16f7 5fbf 8e9b 2bbf
000000e0: b7d9 a2bd b139 babe 3569 2b3e 0e2a acbe
000000f0: 5104 65bf 0b6d 91bf 9b63 c93e fb72 a0bf
00000100: 6e96 553e 8e8b 223b 6a54 193f f6b4 283e
00000110: 4221 3ebf e727 e1be 4a9c c53c ebb1 1f3e
00000120: 4ea8 163e 3592 d5bd b55e a83f 0105 8abe
00000130: 0fd7 ccbc 5c88 f03e d31d 7c3d 9835 d8ba
00000140: 6ad1 4dbf 9f6b 8f3f e6f4 ee3e 95e9 3cbf
00000150: d676 623e 2f77 cebe c807 95bf 7e6d 5dbe
00000160: 160a 283f 54c7 c8bf 934e 7fbd 87b4 eabf
00000170: 83af da3d 88d2 5b3e 0631 663f 5912 693f
00000180: cadd c33d 1608 f13d 75d5 653f 4afe 08c0
00000190: 4ccc cabd 691e 45be 4b1c 75bf 4540 4ebf
000001a0: fc35 823e 0828 4c3f 3cdf acbd b151 733d
000001b0: 44fb bfbe c000 893d bc06 1bbf 5580 99be
000001c0: e8d6 a0bf b63b c0bd f960 2ebf 2e03 dabe
000001d0: 3009 583f 8f71 cbbc 24cc 18bf dfb2 dfbe
000001e0: 9686 d7bd c840 89be 824f 4cbe e9fb ccbe
000001f0: 80f1 25bd 7574 8bbe 4446 113d 50af f9be
00000200: a498 04bf cc21 123e e944 b1bf e776 2abf
00000210: 84bf ab3e d6ff 80be 308e abbf 6d71 60bf
00000220: c8dc 9ebd 1c37 ecbe 8795 253e 3a83 5ebf
00000230: 6713 d7be 87af 07bf f06a 0b3f 6767 94be
00000240: b538 94be f72c cfbe 8c4b 4ebf ef6b dbbe
00000250: b72c 1a3f d0ac 853f b612 703d 6071 5dbf
00000260: 0e38 3fbe f4a6 f03c 2831 923d 50a6 05bc
00000270: 3a41 6840 5ef0 0a3d f8c4 8f3e fcf8 0abd
00000280: 1b18 2bbd 05ad 003f c835 ec3f 84de fa3e
00000290: 6d1c a1be 1391 7cbf a8b8 0c3d 69e8 cc3d
000002a0: cb69 b2bf b2ea f6bc 0a62 083f 9cdd 4abf
000002b0: ace7 c5bf 834a b0bd bceb f83e faee 90bf
000002c0: c5e1 3ebe 6513 2abe af5a 6d3e b5d5 18bf
000002d0: 37de b6be c8d0 87bf 7a9a 24bf a74e 40bf
000002e0: 2810 833e 4e8d 743e 1101 ba3e 1e72 ce3e
000002f0: a67c ecbe f25a 17bf a471 57bd 4a6b 0a3f
00000300: 62dd 18bf 57a5 31bf 068b 6fbf 2642 a3bf
00000310: 1613 cb3f 919f 803e 8c34 9dbd 782b c7be
00000320: 849a 52bf 87a1 8d3c 1c97 ccbe bfac edbd
00000330: b91b 903e 0e21 d1bd 6137 233f 7871 0a3f
00000340: 699f 10bf d73b 25be 7323 02bc e74c 3c3e
00000350: 12bf fd3e 6aec 603f 5363 5abd 9dba 843d
00000360: 5dd5 0a3f 058b 5f3e 8dba 833f 541d 82bf
00000370: 89ff 063f bb0f 39bf eb0e 86bf 5d83 5fbf
00000380: 820f 0c3e 7e25 d13e c66c a23e a5bd 5dbf
00000390: d22e 1c3e b1f8 d1bd fa70 95bf c17f 683d
000003a0: cba6 d3bd 9f47 333f 1228 4c3e 07a2 acbe
000003b0: 6432 57bf 3b3e 4abd 0af0 b8bd 3b9f adbd
000003c0: c4d3 3cbe a3c2 223f 1ef8 053d 0955 903f
000003d0: 8a4b d4be ecfd d43f a702 1c3e 81e0 3a3f
000003e0: 6589 a63c 9bde 3b3d 7f6f b93f ba15 8abf
000003f0: 3805 003e 942c e13c fbc5 d63d 3e95 78bf
-0.37954703 -0.7239977 0.44893447 -1.0206438 -1.2749894 -0.49459353 0.51557577 -0.3694515
-0.08920281 0.5756325 0.2499291 -0.14412151 -0.5507598 0.3373931 -0.40755737 -0.42666587
-0.21963562 -0.7276392 0.18381342 -0.47243357 -0.5272488 -1.1757798 -0.48183256 -0.9253626
-0.122045465 0.16310555 -0.37064755 0.22007959 0.8183984 0.07687748 -1.5794581 0.78305626
-0.393415 -0.018985268 -0.13942827 0.16709325 0.6788538 0.7254853 0.22169182 0.50174445
-0.07848061 0.8406064 -0.83590573 2.7637508 0.5645197 -0.5393034 0.32697704 0.1953483
-0.17246181 0.7991566 -0.23417039 -0.2747026 -0.1539108 0.9592851 -0.874864 -0.6703423
-0.07951682 -0.3637214 0.16739352 -0.33625835 -0.8945971 -1.1361402 0.39333805 -1.2535089
0.20858166 0.002480242 0.5989443 0.16475281 -0.742695 -0.43975756 0.024122376 0.15595214
0.1471264 -0.104282774 1.3153902 -0.26956943 -0.025004892 0.46979034 0.06155188 -0.0016495464
-0.80397666 1.1204718 0.46671218 -0.7379392 0.22115645 -0.40325305 -1.1643 -0.21623799
0.6564039 -1.568583 -0.062330794 -1.8336343 0.106780075 0.2146703 0.89918554 0.9104362
0.09563787 0.117691204 0.89778835 -2.1405206 -0.09902248 -0.19249882 -0.95746297 -0.8056682
0.25431812 0.7974858 -0.08441016 0.05940408 -0.37496388 0.06689596 -0.6055715 -0.29980722
-1.2565584 -0.09386389 -0.6811672 -0.4258055 0.8438902 -0.024834422 -0.59686494 -0.43691155
-0.10523717 -0.26807237 -0.19952205 -0.40035942 -0.040513515 -0.27237287 0.0354674 -0.48766565
-0.5179541 0.14270705 -1.3849155 -0.6658768 0.33544552 -0.25195187 -1.3402767 -0.87673074
-0.077569544 -0.46135795 0.16170321 -0.86918986 -0.4200699 -0.5300221 0.5446005 -0.2898514
-0.28949514 -0.40463993 -0.80584025 -0.42855784 0.6022448 1.0443363 0.058611594 -0.8650112
-0.18673727 0.029376484 0.07138282 -0.008157328 3.628981 0.03392064 0.28079963 -0.033928856
-0.041771036 0.50264007 1.8453913 0.4899789 -0.31467 -0.98658866 0.03435579 0.10005266
-1.3938535 -0.030141208 0.53274596 -0.792444 -1.5461326 -0.08607962 0.4861735 -1.132293
-0.18640812 -0.16608961 0.23179124 -0.5970109 -0.3571641 -1.061059 -0.6429821 -0.75120014
0.25598264 0.23882028 0.3632894 0.4032144 -0.4618885 -0.59123147 -0.05259861 0.5406996
-0.59712803 -0.69392914 -0.9357151 -1.2754562 1.58652 0.2512174 -0.07676038 -0.38900352
-0.8226702 0.017288936 -0.39959037 -0.11605214 0.2814615 -0.10211383 0.63756377 0.5407939
-0.5649324 -0.16136108 -0.007943022 0.18388711 0.49559838 0.8786074 -0.05331738 0.06480906
0.54231817 0.21830375 1.0291306 -1.01652 0.52733666 -0.7228963 -1.0473303 -0.8730982
0.13677791 0.40848917 0.31723613 -0.866175 0.15252236 -0.10252512 -1.1675103 0.05676246
-0.103345476 0.7003116 0.1993716 -0.33717367 -0.84061265 -0.049375754 -0.09030159 -0.084776364
-0.18440157 0.6357824 0.032707326 1.1275951 -0.41463882 1.6639991 0.15235387 0.72998816
0.020329187 0.04586659 1.4487151 -1.078788 0.12501991 0.027487077 0.104869805 -0.97102726

net.0.bias f4 [64]
00000000: d2e1 03be c048 bb3e c380 d6be 2052 f4bd
00000010: da6e 8f3e 04f3 d73e 1785 963e b90e 21be
00000020: a287 833e b466 153f 2218 48be 4da3 d1be
00000030: 8fea 903e 4b02 96be 0811 c9bc dfa4 f83e
00000040: 42f7 c83b 156f bebe a824 2fbf abd8 a4bd
00000050: 1f5c f93e 6911 81be 8f4c ccbe 710d 913e
00000060: 8475 0ebf bc53 013d 578e c23e 6571 80bd
00000070: 5abf 683e 585b f03d 86ab 553f 836b ccba
00000080: a5cb b83d a833 0b3f e655 a0bc 202c 3b3e
00000090: 5289 053f 9e43 c03d 043e 013e 3f40 e23e
000000a0: 5962 86bb 12df a13e c581 a8bb 4f79 81be
000000b0: 2d0b a33d 9d21 df3d 3523 c53e 2310 393e
000000c0: f698 a33e 1d62 82be 894a 9f3e 014b 0b3f
000000d0: 2119 073f ecf1 073f a42a 063f d06d dbbe
000000e0: 1b0a 7c3e 77c3 c3bb 9328 b83e 7498 fb3e
000000f0: 4ac6 d03e 6dbb ebbe 1b3d c83e 4a8f 323e
-0.12879112 0.3657894 -0.41895112 -0.119297266 0.2801426 0.42177594 0.29398414 -0.15728272
0.25689417 0.5835984 -0.19540456 -0.409449 0.28303954 -0.29298624 -0.024544254 0.48563287
0.006132991 -0.37194124 -0.6841531 -0.08049139 0.48703095 -0.25208595 -0.3990216 0.28330567
-0.55648065 0.031573996 0.37999222 -0.06271628 0.22729245 0.117361724 0.8346485 -0.0015596006
0.09023217 0.54375696 -0.01957221 0.18278551 0.5216266 0.09387897 0.12621313 0.4418964
-0.0041010794 0.31615502 -0.005142423 -0.25287864 0.07961116 0.10895083 0.38503423 0.18072562
0.31952637 -0.2546548 0.31111553 0.5441132 0.5277272 0.5310352 0.52408814 -0.42857218
0.2461323 -0.005974229 0.35968456 0.4913975 0.40776283 -0.46041432 0.3910912 0.17437473

net.2.weight f4 [64, 64]
00000000: 9dbd 6abc ac72 dbbb bff2 c23d de27 c2bd
00000010: 18c6 153d 9a3f ecbd 8038 aa3b 1e58 f53d
00000020: 2ef0 d2ba 10ef 363c 9013 e7bd 6448 aebd
00000030: af6d d2bd 303b 413d 5aa4 b9bd c6ae 9ebd
00000040: 1b8e bd3d 10bf a6bc d431 c23d 8d44 18bd
00000050: b4eb 733d 2df8 d03d 922b 09bd d770 0bbe
00000060: cc0a 29bd 09ea 473d 60b4 2cbc e05c 80bb
00000070: bc72 0abe 256b 003d 1c19 843d cc53 cbbd
00000080: 66f2 a0bd 46f8 b3bd 00fb 843d 82b8 edbd
00000090: 5c6e 16bd 6b36 bfbd 8876 48bd c677 d7bd
000000a0: 6d66 03be b0b7 03bd 36ab 983d 4a3f a13d
000000b0: 4dd5 a6bd 9ede f5bd 26da a23d f030 ce3d
000000c0: 58ec f9bc e806 aebc e51c 67bd 6e95 83bd
000000d0: 789e 63bd d36f 77bd b493 973c fcd9 b7bd
000000e0: 12ae 55bd 703e 06bc b3b0 36bd e801 fbbc
000000f0: 37e8 5b3d 0324 ca3d 750c d13c 82e4 f3bd
00000100: 07b2 393e 3ba9 17be bf61 ea3e f86b b93e
00000110: 1efa 863d d2dd 653d b428 cbbe fb3e 353f
00000120: 7378 523e 35de 2f3f cf64 12be 2625 8dbf
00000130: f964 813e e8dd 77be afa6 5f3f 3b57 223e
00000140: c181 0b3e 40b4 a33e 5cbc 633f b354 e4bf
00000150: 984d 4d3e aada bbbc 8c60 cd3e bf81 c33e
00000160: fad7 5f3f 9aaa 7e3e df11 a33e c86c 963e
00000170: f9db 2b3e 45d0 1dbe e82c ecbe 7f4c 67bf
00000180: 031c 613d 998d e43e 9403 eb3d 9992 01be
00000190: 6ea6 913e b36f e93d f12f d93e 3db6 5abe
000001a0: b1e2 f3bd 0a38 89be 15c7 1cbf ae13 a83e
000001b0: dc04 023f 9072 fa3e c573 053f 17fe c7bd
000001c0: 406a 8e3d f240 58bd 0a51 a1be 1566 df3e
000001d0: 187d 153f 06ac 3a3e 2b04 d23e 3a3a 213f
000001e0: be96 15be fefa 93be c844 043f e1e2 9ebd
000001f0: 79a5 b73d d5a5 8f3e 7ca2 be3e f966 8f3e
00000200: 8352 3a3f 8a0f d2be bd22 543f 259c 3d3f
00000210: ae9d 8a3e 5d31 3a3f db94 59bf 82da 6f3f
00000220: a00a 143d f26a 45be 348a 223f c613 89be
00000230: 0f68 763d b715 703e 7c27 8f3f 12d3 bdbd
00000240: 85e8 183f acf9 4b3f 4dc0 db3e 91ce 22bf
00000250: f159 ce3e edba 983e 70ed 333f 52e8 833e
00000260: c26c c23e 3554 053f 375f a1be 4442 e1be
00000270: 49f7 fe3d d4d3 16be 3f6d 76bf 304c 823e
00000280: e02c 353e 98eb 9c3b 313c 01bf 6ca6 d9be
00000290: dd73 9e3d 9336 1bbf 7ca0 083f 83df 56bf
000002a0: 8428 fb3e aa1c 9cbe 2df9 80be 6e61 d33e
000002b0: 1856 fe3e 50cf 6c3e 4728 af3e e518 c23e
000002c0: 1bfb e1be 9e1e 533e 6de9 f1bc f287 033e
000002d0: 9341 28bf 1c68 753e 4afb 503e 2907 db3e
000002e0: 6eff 16bf ce2b 8e3f 323f 583e 8c27 dbbe
000002f0: 3991 533d 5cde 0d3f 7a4e 803e bb6c cb3e
00000300: 017e 51bf 32fe c93e b638 33bf 0985 11bf
00000310: 44ad debd a9ed 393f 592a 063f dcbb 373f
00000320: 87da e4be 4721 983c 7de3 c43e 670d b3be
00000330: e871 81be 7578 343f d7fb 87bf 9e1c 5abb
00000340: 017f 063e 3bdd 3cbf 5074 87bf 9a01 f63f
00000350: a258 153e f848 583e 09f9 933e 6c92 78be
00000360: fee6 00c0 86f2 8abe 8ed8 90be 03bc 273d
00000370: 7d76 f53d 0e8c 583e 75f0 853e 7a70 993f
00000380: 7b73 853d 2ca9 10bf 902e 7abf 76d4 f53e
00000390: 7309 5fbd bd2a b53e ac3a 89be 2e18 8a3e
000003a0: 407b e73e 8144 323e 95e4 673f a48f a1bf
000003b0: 92a6 28be 483b c53d a162 283e d7c3 a43d
000003c0: a0a5 ee3e 0940 b6bf a96b 533f dfee be3d
000003d0: 2f51 dcbe e8d9 c93e bcb1 9ebe d8fe 1cbe
000003e0: 180a 42be 9f22 5f3f 29d1 78bd 3d3a 3a3e
000003f0: 5127 11be d63e 04bf 50b5 093e 2089 333e
-0.014327434 -0.0066970196 0.095189564 -0.0948026 0.03656587 -0.115355685 0.0051947236 0.11979698
-0.0016093308 0.011165395 -0.11283028 -0.08509901 -0.10274827 0.047175586 -0.09064551 -0.07748179
0.0925562 -0.020354778 0.0948216 -0.03717475 0.059550956 0.10203586 -0.033488818 -0.13617264
-0.041270062 0.048807178 -0.010541052 -0.0039173216 -0.1352033 0.03135218 0.06450102 -0.09928092
-0.07858734 -0.08787589 0.06493187 -0.11607458 -0.03672634 -0.09336551 -0.048941165 -0.10520892
-0.12832041 -0.0321576 0.07454531 0.078733996 -0.08146153 -0.120053515 0.07951765 0.10067928
-0.030508205 -0.021243528 -0.05642404 -0.06424986 -0.05557105 -0.06040938 0.018503048 -0.08977124
-0.05216796 -0.008193597 -0.044602107 -0.030640557 0.053688254 0.0987015 0.025518635 -0.11908819
0.18134318 -0.1481065 0.457777 0.36215186 0.06590675 0.056119747 -0.39679492 0.70799226
0.2055376 0.68698436 -0.14296268 -1.1026962 0.2527235 -0.24205744 0.87363714 0.15853588
0.13623716 0.31973457 0.8895929 -1.7838348 0.20049131 -0.022931416 0.40112722 0.38184926
0.8743893 0.24869767 0.31849572 0.29379869 0.16783132 -0.1541148 -0.4612801 -0.903511
0.054958355 0.4463928 0.11475292 -0.12653579 0.28447288 0.11398258 0.4241939 -0.21358581
-0.11908472 -0.26800567 -0.61241275 0.32827514 0.50788665 0.4891553 0.52129775 -0.09765261
0.06953859 -0.05279631 -0.3150714 0.4363257 0.58394 0.18229684 0.41018805 0.6297947
-0.14608285 -0.2890243 0.5166745 -0.077581175 0.08967108 0.28056207 0.3723334 0.2800825
0.7278215 -0.4102748 0.82865506 0.7406638 0.27073425 0.7273157 -0.8499276 0.9369279
0.036142945 -0.19279078 0.6349213 -0.26772898 0.06015783 0.23445784 1.1183925 -0.09268774
0.59729797 0.79677844 0.4292015 -0.63596445 0.40302995 0.29830113 0.70284176 0.25763184
0.379736 0.52081615 -0.31517956 -0.4399587 0.1244951 -0.14729244 -0.96260446 0.2544875
0.176929 0.004788827 -0.5048247 -0.42509782 0.07736943 -0.6063015 0.5336988 -0.839348
0.49054348 -0.3049062 -0.25190106 0.4128527 0.4967506 0.23125958 0.34210417 0.37909618
-0.4413689 0.20617148 -0.029530251 0.12844828 -0.6572506 0.23965496 0.20408359 0.427789
-0.58983505 1.1107118 0.21117857 -0.4280361 0.051652167 0.5541742 0.25059873 0.39731392
-0.8183289 0.39451748 -0.7000841 -0.5684362 -0.108728915 0.72628266 0.5240837 0.71771026
-0.44697973 0.018570555 0.3845481 -0.34971163 -0.25282216 0.704963 -1.062373 -0.0033281217
0.13134386 -0.7377507 -1.0582371 1.9219239 0.14584592 0.21121585 0.28900936 -0.24274606
-2.0140986 -0.27138156 -0.28290218 0.040950786 0.119854905 0.21147177 0.26160017 1.198745
0.06516167 -0.56508136 -0.977273 0.48013657 -0.05445237 0.3538417 -0.26802576 0.26971573
0.4521122 0.17408945 0.90583163 -1.2621961 -0.16469792 0.096304476 0.16443874 0.08045166
0.46610737 -1.4238292 0.8258615 0.09322905 -0.43030688 0.39424062 -0.30994976 -0.1533159
-0.18949163 0.871622 -0.060746346 0.18186279 -0.14175154 -0.5165838 0.13448071 0.17532778

net.2.bias f4 [64]
00000000: 62b1 49bd f3cd 083e 813d 03be e530 063d
00000010: ddae 5fbd 605a 3c3d 7746 83bc 06f7 953b
00000020: 71fc 1e3e 014f 963d 3c4a 043e c86e 4c3e
00000030: f7d3 fc3d a762 9b3e a9f0 103e 2fcc 953e
00000040: 8a94 503e 974e 1ebe 5939 b1bb f6c8 033d
00000050: 4fd3 d83c ed64 043d 0c0e babd bbab d9bd
00000060: a3ff aa3d feaf bdbd 400f c03d 7362 acbd
00000070: 6f2e 493d 2ae1 9a3e 86e2 3abd 7814 5cbd
00000080: c4dc 55bd a5db 03be 348a 1e3f fa0c f83d
00000090: 18a1 223e 2da7 d03d d09d 1c3e 972d 503e
000000a0: 2914 c9bd fb9c 9fbd 010a a43d 3ff1 27be
000000b0: b505 06be acde adbd 349e 2b3e 51dd 723e
000000c0: 06c2 653e c346 e1bc abb9 243d bff6 b93d
000000d0: 79f4 483e 938f 8d3e fdc5 4e3e 9a4b 17be
000000e0: df27 073f 2519 0d3e efa6 9a3e e7e5 e93d
000000f0: d414 1c3e 39fc 0a3e f76b bdbe c821 b13e
-0.04924143 0.13359813 -0.1281643 0.032761473 -0.054610122 0.045984626 -0.016024811 0.0045765666
0.15525986 0.073392875 0.12918943 0.19964135 0.123451166 0.30348703 0.14154305 0.29257342
0.20369163 -0.15459667 -0.0054084477 0.032174073 0.026467947 0.032322813 -0.090847105 -0.10628458
0.0834954 -0.092620835 0.09377909 -0.08417215 0.04911655 0.30249912 -0.045626186 -0.053730458
-0.05221249 -0.12876756 0.6192963 0.1211185 0.15881765 0.10188136 0.15294576 0.20329891
-0.09818298 -0.077936135 0.080097206 -0.16400622 -0.13088115 -0.08489737 0.16759568 0.23717238
0.22437295 -0.027499562 0.04021613 0.09080266 0.19624509 0.276486 0.20192714 -0.14774933
0.52795213 0.13779123 0.30205485 0.114208035 0.1524232 0.13572778 -0.36996433 0.34596086

net.4.weight f4 [4, 64]
00000000: 5c2b 223d 25d7 28bf 6d60 b2be 1d05 953e
00000010: e1e2 08bf 7dd2 d2bc fb59 82bf 325d 97bd
00000020: d24d b9be 424c d9be ff6b e6be 675c d1be
00000030: 912d 06bf 94ec 0abf 4486 613e f054 d1be
00000040: 9519 21bf e6bd 0f3e 8421 d93f 1d5d 1a3e
00000050: 1859 fbbe f0f0 11bf 281d c8bd c272 e0bd
00000060: 478f f2be ebb7 70bd 8560 0dbf 9b70 d53d
00000070: 14dd 50be 040f a33f 7c2b efbe fc27 973d
00000080: 27bb f1bd af9c 133f 5795 913f a44f 43bf
00000090: d67d 2cbf 6820 06bf 3fb2 16bf 1dbe 0f3f
000000a0: b42d 83bd f784 bb3f 19a7 10bf 1fb9 85bd
000000b0: ccc0 8e3d 6f40 0d3d 7a5f a4be aee5 433f
000000c0: 4fb6 633f e239 2f3c 03dc 9fbc 29a9 393f
000000d0: 1664 c93f 2982 693e fa9c 29bf c535 44bc
000000e0: 99b4 873f 320c 01bf 8be6 a53f 5c8c fa3e
000000f0: bbc2 49bf b9cc e1be fb8d 56bf d338 1c40
00000100: 30ad 47bd 2c7b d5be b791 d0be 317c 7c3f
00000110: 57fa 32bf f3e0 783d 8917 e5be 9d25 c43c
00000120: 15c0 41bf b991 d9be ea65 02bf 04b6 95be
00000130: a8c6 f9be 3af8 3cbe 1395 003d df20 bfbe
00000140: 3c77 24bf d973 473e b4f0 cb3f 780d 8dbe
00000150: 497a 03bf 3bbe d9be 68b0 163c 0a6b 95bd
00000160: 0b80 03bf c0dd af3b 78aa f2be f6a3 4a3c
00000170: 01be 81bd 32cd 8d3f 041f 00bf 985d 8b3c
00000180: fec6 613d 4994 d93e b702 383f 8287 22bf
00000190: 3971 37bf 7518 f3be 5ba7 d5be a834 7a3f
000001a0: 400b db3c 1686 b73f e075 cbbe bfc6 3abd
000001b0: 1409 113d 184a 0bbd 0101 45be 9205 4b3f
000001c0: e9b3 4e3f 27f1 1b3d 36cf d73d 5ded 19be
000001d0: aba1 c73f 795c 79be 3282 3dbf 001b 33bb
000001e0: c477 583f 618a 29bf 50ff b83f 248a 3d3f
000001f0: 463f 27bf 4021 21bf 7175 5ebf 9155 1940
00000200: d97b f5ba 8ecb c2be e93c 1abf fe91 4c3f
00000210: 7211 9fbe 096a 0f3f 682a bebe 4980 6d3b
00000220: a856 55bf 47e0 35bf bc99 24bf 80e4 f3be
00000230: 01e2 41bf a984 9abe 6ba2 043f 133d 1fbf
00000240: 1aa0 0fbf 1933 5abd ebee c53f dfee 2ebf
00000250: 3fd8 97be c226 1dbf e00d 023c bbcd 3dbc
00000260: c689 18bf 7f47 6e3d 7ef0 d1be b16e 623c
00000270: 0d3d 3cbf 77e6 aa3f 2943 ebbe 747e bbbd
00000280: f278 9cbd 4448 ca3f 9bc5 533f 23ae 18bf
00000290: 0335 9abe bda4 9bbe ad20 25bf ee1e 503f
000002a0: f24f 3f3d 6a75 ad3f 6b04 2abf 8558 103d
000002b0: 7bc7 d03d 564a e03d e80c 003f 2e40 f03e
000002c0: 9b16 5f3f 2bb9 843d 4479 7b3d 7bd0 843f
000002d0: 9a1b ab3f 7ee4 e93f fae3 49bf 0d08 4f3d
000002e0: 64c1 633f 15e6 20bf 0c56 ab3f b7d2 3f3f
000002f0: 2edb 15bf 6734 efbe a4bd 6dbf d873 0440
00000300: f66b d53d 1824 41bf 9e56 b1be 19ad f53e
00000310: e685 a5be 679a a03d 7efe a9bf df48 d33d
00000320: cc54 af3d 384d fcbe 1966 e4be d9b0 09bf
00000330: c343 d1be 4a0f 3fbf f651 163f 02da 12bf
00000340: 9965 29bf 0f6b d5bc 123f 0040 05ee dfbd
00000350: 5001 18bf 481c 07bf 415d 80bd b01a 7b3c
00000360: 9584 14bf c8d7 ebbc 1e0f 0bbf 9d0f 3b3d
00000370: 035e 13be 56d0 c43f 98a3 37bf 6810 64bd
00000380: 55d6 4d3b 01b1 2c3f fe8e a43f 18e7 4abf
00000390: edf6 f2be 9e23 1cbf e2fe e8be 3ca5 243e
000003a0: 44b7 32bc 71a1 893f a7cc 0dbf 485a 2b3d
000003b0: 98b7 2abc f0ae a53c 0e92 a8be 656b d63e
000003c0: 4101 0d3f 3d87 ef3c 1c7e 2b3d e1ad 183f
000003d0: 0164 c73f d905 cebe 98dd dfbe 55bc a23c
000003e0: 344a 943f 826e edbe b536 9f3f 1dc3 753e
000003f0: 49ec 17bf ec99 02bf 9892 2ebf 8cb9 2640
0.039592132 -0.65953285 -0.34839192 0.29105464 -0.5347119 -0.025735134 -1.018371 -0.073908225
-0.36192185 -0.42440993 -0.4500427 -0.4089081 -0.5241328 -0.5426724 0.22023875 -0.40885115
-0.6292966 0.14037284 1.6963353 0.15074582 -0.4909141 -0.57008266 -0.09771186 -0.10959388
-0.47374937 -0.058769148 -0.552254 0.104218684 -0.20396835 1.2738957 -0.46712863 0.07380673
-0.118032746 0.57660955 1.13737 -0.76293397 -0.6737951 -0.523932 -0.5886573 0.56149465
-0.064052016 1.4649953 -0.5650497 -0.0652945 0.06970367 0.034485277 -0.32104093 0.7652234
0.88950056 0.010694953 -0.01951409 0.7252374 1.5733669 0.22803558 -0.6625515 -0.01197571
1.0601989 -0.50409234 1.2960981 0.4893521 -0.7881276 -0.44101503 -0.83810395 2.4409683
-0.04874915 -0.41695535 -0.40736172 0.98627 -0.6991324 0.060761403 -0.44744518 0.023943717
-0.7568372 -0.4249399 -0.5093676 -0.2924043 -0.48784375 -0.18454066 0.03139217 -0.37329766
-0.6424444 0.19477786 1.5932832 -0.27549338 -0.5135847 -0.42527947 0.009197332 -0.07295807
-0.51367253 0.005367011 -0.47395682 0.012368193 -0.063350685 1.1078246 -0.50047326 0.017012402
0.055121414 0.42495945 0.7187914 -0.6348802 -0.7165714 -0.47479597 -0.41729245 0.977366
0.026738763 1.4337795 -0.3973837 -0.045599695 0.03540905 -0.03400621 -0.19238664 0.79305375
0.8074327 0.038071778 0.10537569 -0.15031953 1.5596212 -0.24351682 -0.7402679 -0.0027329326
0.8455775 -0.66226774 1.4452915 0.7403891 -0.6533092 -0.6294136 -0.8689795 2.3958476
-0.0018728926 -0.38045925 -0.6024919 0.79910266 -0.31067997 0.5602117 -0.37141728 0.0036239794
-0.8333535 -0.71045345 -0.6429708 -0.4763527 -0.7573548 -0.30179337 0.5181033 -0.62202567
-0.5610367 -0.053271387 1.5463537 -0.6833324 -0.2965717 -0.61387265 0.007937878 -0.0115846945
-0.59585226 0.058173653 -0.41003793 0.013820336 -0.73530656 1.3351582 -0.45949677 -0.091549784
-0.07640256 1.5803304 0.82723397 -0.5964071 -0.3011857 -0.30399123 -0.64502984 0.81297195
0.0467071 1.3551457 -0.6641299 0.03524067 0.10194298 0.109516785 0.50019693 0.46923965
0.8714387 0.064806305 0.061394945 1.0376123 1.3367798 1.8272855 -0.7886349 0.050544787
0.88966966 -0.6285108 1.3385634 0.749309 -0.58537567 -0.46719667 -0.92867494 2.0695705
0.104209825 -0.754457 -0.34636396 0.47983626 -0.3232872 0.0784195 -1.328079 0.103166334
0.085610956 -0.49277663 -0.44609144 -0.53785473 -0.4087201 -0.74632704 0.5871881 -0.57363904
-0.6617065 -0.026052026 2.0038495 -0.109340705 -0.59377 -0.5277753 -0.06267787 0.015326187
-0.58014804 -0.028789416 -0.5431994 0.045669187 -0.14391331 1.5376079 -0.71734 -0.05567971
0.003140827 0.67457587 1.2856138 -0.7925887 -0.47454014 -0.6099185 -0.4550696 0.16078657
-0.010907952 1.0752393 -0.553904 0.041834146 -0.010419749 0.020225018 -0.3292393 0.4187881
0.5508004 0.029239291 0.041868314 0.5964032 1.5577394 -0.40238836 -0.4372375 0.019865194
1.1585145 -0.46373373 1.243857 0.24000211 -0.5934492 -0.51016116 -0.68192434 2.605075

net.4.bias f4 [4]
00000000: bfcb f53c 4598 b6bc a41f 793b f114 85bc
0.03000438 -0.022289405 0.0038013244 -0.016245337
