Lunar Landing/lunar_lander_model_SARSA.pth (torch, 76065 bytes, 6 tensors)

layers.0.weight f4 [128, 8]
0.40757236 0.5380826 0.90655416 -0.39944798 1.671648 -1.2480062 0.066049606 0.6320557
0.23543023 0.13556252 0.28217784 -1.1725533 1.5304654 1.4191557 -0.04199831 0.72759396
1.0629038 -0.6775388 1.9242125 -0.9158928 -2.310378 -0.5199233 0.71126807 1.7776814
0.19155037 1.1478451 -0.842665 1.7138447 1.4509066 -0.9036406 -1.5858315 0.58618075
-1.3019984 1.1554357 2.0718477 0.35581192 -0.032781594 0.76791847 -0.719025 -1.3196608
-0.806278 -6.8825655 2.846458 4.4681077 0.5289678 1.774394 1.3283964 0.9786708
-0.36271557 -0.36430365 -0.09036936 -1.0519905 -1.1045003 1.4694401 -0.16769174 0.008954492
0.676204 1.2158725 2.3156958 -0.983352 -0.9832587 -1.2445446 -0.27970776 1.7010357
0.5922219 0.5252044 0.15194969 0.11774429 -2.6899016 -1.8775803 -0.22965585 0.048549555
-1.1263409 -3.2085629 0.1153297 -0.9977832 1.3240447 0.706888 -0.18041684 -2.3585122
2.415412 -0.17209274 1.027504 1.1225171 -4.886682 1.0162011 0.45902085 -0.22729623
-0.68798107 -0.8370764 0.5950499 -0.5445506 0.41242656 1.8638304 0.9300607 -2.752139
-2.1949172 -0.048847128 0.14639916 0.3394233 2.1748788 -0.45737746 -1.2471635 2.5638306
-0.7575102 -4.8292427 2.6184776 -1.0245892 -0.33879265 -1.8771104 -1.8264669 -0.22482558
0.22579215 -0.11673972 -1.4145081 0.80782413 0.41296315 -3.0415957 0.8245565 -0.18958688
3.4342103 -1.3093779 1.2421112 1.2158177 1.5143998 1.234083 -0.5311503 0.64697504
-0.077527955 -0.5862203 -1.0390795 -1.3961245 -0.655762 -0.8841778 -1.9250784 -1.2554934
1.3128927 0.65577656 0.19536406 -0.6139569 -2.1255097 -0.45681548 0.47612575 1.337605
1.0811228 -1.3171828 -0.4955071 -1.9933664 1.6891353 1.4955976 -0.34467605 -1.4803547
0.6669666 0.40180957 0.12557328 -1.0852872 1.7355353 0.85605603 0.47136667 -1.3361397
1.2587967 -0.7283977 -0.1202367 -2.607679 -0.3454695 -0.030231003 -1.4020007 0.021407198
0.123041525 -2.4657621 1.5341363 0.30443937 0.363479 1.2089915 0.7952125 -0.4299356
0.74716353 0.3748276 0.8327346 -0.050628666 0.61576194 1.5507821 1.8810704 -0.17495829
0.29049617 -0.89688736 -0.550333 3.456355 0.80021083 0.072183326 0.11039023 1.9736141
-0.8003079 0.4523123 -1.1397226 -0.48745507 0.42701772 1.3199401 0.4888058 -1.2566139
-0.60423285 -1.9880502 1.6910276 -0.8447559 -0.7813253 1.067451 -0.5250806 -2.9886582
0.53004485 -1.0024244 -0.096454486 -1.4202629 0.3986049 -3.205054 0.0018986186 -1.5199289
-0.77134633 0.18031526 -1.5351418 -1.3300742 -0.13944817 0.1115568 0.099879645 1.8023368
-1.701192 0.14017941 1.5776342 -0.38960168 1.4924994 -1.6172657 -1.9686706 0.21390149
-1.9740038 0.17153794 1.2581617 -0.9620876 -1.8395501 -1.5092722 -0.09438182 0.42059937
-0.061686307 0.35394529 -0.86947775 -0.33873037 -1.1474447 -2.0599363 -0.4020207 0.65357316
-0.27057546 0.3739972 -2.357135 -0.5663139 -0.9411453 -2.7827249 -1.4938697 0.749849
00000000: 53ad d03e c8bf 093f ef13 683f 7284 ccbe
00000010: 90f8 d53f abbe 9fbf 0445 873d 67ce 213f
00000020: 9f14 713e e7d0 0a3e 9d79 903e 3a16 96bf
00000030: 4ae6 c33f e5a6 b53f 6b06 2cbd 9943 3a3f
00000040: 3b0d 883f 2f73 2dbf 984c f63f f377 6abf
00000050: 3cdd 13c0 b219 05bf aa15 363f 108b e33f
00000060: c825 443e 97ec 923f e5b8 57bf 435f db3f
00000070: 4fb7 b93f fe54 67bf 87fc cabf f10f 163f
00000080: e2a7 a6bf 51e5 933f 2799 0440 fb2c b63e
00000090: fe45 06bd 4e96 443f 0612 38bf a5ea a8bf
000000a0: 3c68 4ebf fa3d dcc0 5e2c 3640 bdfa 8e40
000000b0: 6f6a 073f 581f e33f e508 aa3f 2b8a 7a3f
000000c0: dbb5 b9be 0286 babe 9213 b9bd a0a7 86bf
000000d0: 4460 8dbf 9d16 bc3f 62b7 2bbe ddb5 123c
000000e0: b51b 2d3f b6a1 9b3f 5c34 1440 f5bc 7bbf
000000f0: d8b6 7bbf 3d4d 9fbf db35 8fbe 8abb d93f
00000100: db9b 173f cc73 063f b398 1b3e eb23 f13d
00000110: 5927 2cc0 8d54 f0bf e72a 6bbe e6db 463d
00000120: f02b 90bf 1859 4dc0 fa31 ec3d b86e 7fbf
00000130: 4c7a a93f 9df6 343f 31bf 38be ddf1 16c0
00000140: 1c96 1a40 1439 30be 4085 833f a4ae 8f3f
00000150: b35f 9cc0 e112 823f c804 eb3e 58c0 68be
00000160: 871f 30bf a44a 56bf 3155 183f ab67 0bbf
00000170: 9329 d33e ff91 ee3f 7518 6e3f 0c23 30c0
00000180: 8679 0cc0 ed13 48bd a9e9 153e e4c8 ad3e
00000190: 3731 0b40 612d eabe 0ea3 9fbf cd15 2440
000001a0: 30ec 41bf 2889 9ac0 2395 2740 bd25 83bf
000001b0: 3b76 adbe 2745 f0bf abc9 e9bf ad38 66be
000001c0: 0f36 673e 3c15 efbd 9a0e b5bf 90cd 4e3f
000001d0: e86f d33e 81a9 42c0 2316 533f 1023 42be
000001e0: 1aca 5b40 b299 a7bf 80fd 9e3f ea9f 9b3f
000001f0: dad7 c13f 6ff6 9d3f 77f9 07bf 28a0 253f
00000200: fac6 9ebd 8912 16bf 8f00 85bf 35b4 b2bf
00000210: 05e0 27bf 7a59 62bf f868 f6bf 02b4 a0bf
00000220: de0c a83f f9e0 273f 840d 483e 482c 1dbf
00000230: 5a08 08c0 b8e3 e9be c1c6 f33e a436 ab3f
00000240: 3b62 8a3f 7299 a8bf 1bb3 fdbe a126 ffbf
00000250: 9635 d83f be6f bf3f 6179 b0be 437c bdbf
00000260: 53be 2a3f fcb9 cd3e 4896 003e b1ea 8abf
00000270: 0526 de3f 7d26 5b3f f956 f13e a006 abbf
00000280: 4020 a13f 4678 3abf a93e f6bd 36e4 26c0
00000290: 61e1 b0be 02a7 f7bc c274 b3bf 265e af3c
000002a0: 32fd fb3d 0ccf 1dc0 945e c43f 7adf 9b3e
000002b0: eb19 ba3e 3cc0 9a3f 0c93 4b3f 8520 dcbe
000002c0: 1c46 3f3f 67e9 bf3e 182e 553f 0160 4fbd
000002d0: 93a2 1d3f 0780 c63f eac6 f03f 4428 33be
000002e0: eabb 943e 699a 65bf a0e2 0cbf ec34 5d40
000002f0: 9eda 4c3f dad4 933d 4614 e23d 639f fc3f
00000300: fbe0 4cbf 7a95 e73e 6ee2 91bf b693 f9be
00000310: 11a2 da3e ccf3 a83f c144 fa3e b9d8 a0bf
00000320: 01af 1abf 6e78 febf 9873 d83f ec41 58bf
00000330: ef04 48bf 3ca2 883f af6b 06bf 2d46 3fc0
00000340: 05b1 073f 714f 80bf ee89 c5bd 2dcb b5bf
00000350: f115 cc3e 9b1f 4dc0 12db f83a 088d c2bf
00000360: f476 45bf 90a4 383e 877f c4bf df3f aabf
00000370: 80cb 0ebe e477 e43d b38d cc3d f9b2 e63f
00000380: a9c0 d9bf 318b 0f3e ebef c93f df79 c7be
00000390: 380a bf3f 9002 cfbf 66fd fbbf fe08 5b3e
000003a0: 28ac fcbf a4a7 2f3e 710b a13f 5f4b 76bf
000003b0: 6176 ebbf d52f c1bf 414b c1bd cd58 d73e
000003c0: c8aa 7cbd 5138 b53e 1896 5ebf 116e adbe
000003d0: 78df 92bf ffd5 03c0 a8d5 cdbe 9250 273f
000003e0: de88 8abe 907c bf3e 4ddb 16c0 f3f9 10bf
000003f0: e6ee 70bf 2a18 32c0 1f37 bfbf 1bf6 3f3f

layers.0.bias f4 [128]
-1.3875624 0.053893175 -0.30852386 -1.4195287 -0.3311795 1.3584315 0.62344706 -0.7837507
-1.546503 0.36835137 0.14589524 -0.31520087 -0.29709443 0.6720578 0.55448985 -0.0683716
0.89103055 -1.122825 -0.686907 0.10832678 0.6776856 -1.1428275 -0.8794155 -0.40942395
-1.4358414 -0.12551928 1.0897146 -0.3788928 -0.8066514 0.40426627 -0.12527786 -0.5736339
0.258116 0.8418098 1.4892787 0.54975474 -0.5702924 -0.28344527 -0.35197932 1.4135479
1.0867072 -0.31369153 1.2121961 -0.64192903 -1.628524 0.214243 0.8758834 -0.48107097
-0.6336766 -0.24719618 -0.38047895 -0.30120194 1.0767121 -0.22715099 -0.7377457 -0.27228463
0.70680887 -0.5357786 -0.2109668 -0.32380626 -0.9650343 -1.4405751 0.23549023 0.50152034
-0.13959977 -0.69151825 -1.7757713 0.75675553 1.6731989 -1.0029924 0.02588736 0.5540353
0.20752741 -0.0045338226 -0.3876804 -0.27693468 -1.0729308 -1.0271338 0.072708756 0.3516276
-0.21560563 1.0247377 0.25093082 0.14233463 1.3610684 -0.36193615 -0.13665037 0.03088983
0.31266207 0.62325424 0.880478 -0.41272813 -0.06996166 1.2736813 1.7714924 0.13005294
-0.6102399 -0.16848254 -0.13581128 -0.3515985 -0.3877193 -1.7056041 0.19392069 0.42996714
0.6872009 -1.4122728 -0.29549125 -1.7236991 0.024148615 1.6057386 -0.07969364 0.007756894
-0.28036052 -0.7311448 1.0737048 -0.36311454 0.8600374 -0.075545006 0.7912201 -0.065985605
0.45015308 0.9272745 0.82726926 -1.0506546 0.2150717 -0.2991131 -0.29385707 0.4410855
00000000: a59b b1bf 17bf 5c3d d7f6 9dbe 1eb3 b5bf
00000010: 5c90 a9be 15e1 ad3f 3a9a 1f3f e3a3 48bf
00000020: cff3 c5bf 8d98 bc3e 9065 153e 0262 a1be
00000030: c31c 98be fb0b 2c3f 0cf3 0d3f 6906 8cbd
00000040: 941a 643f bbb8 8fbf 23d9 2fbf 6eda dd3d
00000050: ce7c 2d3f 2c48 92bf 6021 61bf 04a0 d1be
00000060: a7c9 b7bf 2088 00be c57b 8b3f 3dfe c1be
00000070: b580 4ebf fdfb ce3e d748 00be acd9 12bf
00000080: c827 843e d980 573f afa0 be3f babc 0c3f
00000090: affe 11bf bd1f 91be a236 b4be 23ef b43f
000000a0: 3919 8b3f 2d9c a0be 3e29 9b3f 7655 24bf
000000b0: 7973 d0bf 8462 5b3e e539 603f ef4e f6be
000000c0: a138 22bf ff20 7dbe 23ce c2be 2437 9abe
000000d0: b4d1 893f 459a 68be e7dc 3cbf e468 8bbe
000000e0: 6df1 343f c928 09bf ae07 58be efc9 a5be
000000f0: 7d0c 77bf c464 b8bf 5a24 713e a363 003f
00000100: 3ef3 0ebe 5707 31bf 794c e3bf bbba 413f
00000110: 622b d63f 0e62 80bf bb11 d43c 42d5 0d3f
00000120: 1182 543e 7690 94bb 0c7e c6be 62ca 8dbe
00000130: cc55 89bf 1f79 83bf 54e8 943d 8808 b43e
00000140: b9c7 5cbe 9b2a 833f 017a 803e 2bc0 113e
00000150: 7d37 ae3f b24f b9be 13ee 0bbe ab0c fd3c
00000160: 3e15 a03e 978d 1f3f 0267 613f 1a51 d3be
00000170: 0f48 8fbd fd07 a33f 43c0 e23f 992c 053e
00000180: af38 1cbf b086 2cbe 1d12 0bbe b804 b4be
00000190: 2583 c6be 3c51 dabf 2593 463e a724 dc3e
000001a0: 66ec 2f3f 5bc5 b4bf a14a 97be 2ca2 dcbf
000001b0: 51d3 c53c d888 cd3f 6b36 a3bd 8b2d fe3b
000001c0: 6a8b 8fbe 4e2c 3bbf 296f 893f 26ea b9be
000001d0: 692b 5c3f 57b7 9abd 678d 4a3f 7623 87bd
000001e0: 777a e63e dd61 6d3f ebc7 533f da7b 86bf
000001f0: c13b 5c3e 5a25 99be 6f74 96be f5d5 e13e

layers.2.weight f4 [128, 128]
-0.9464824 -0.74527097 1.7086005 -1.1186644 -4.0584025 -0.36149415 -0.9849186 0.12490213
-1.4932039 -0.23145175 -0.55092764 0.048922364 0.03669768 -0.13239762 -0.51167053 0.1592853
-0.5934856 -1.3643425 -0.015964715 -1.3296082 -1.3690704 0.12249868 0.33871457 -0.68769723
-1.2756044 0.3504007 0.8776198 0.3345484 -0.4301737 -0.6232162 -0.16342911 -0.12646931
-0.35154992 0.35251606 -0.47051692 -0.7851169 -1.2979397 -0.048258383 -0.7438438 0.9019201
0.2884089 -0.6265449 0.30896732 -0.21987653 -0.5269447 -1.0732346 -0.42395395 -0.7670617
-1.3899956 -0.7828932 -0.29817134 0.79633784 -1.1517923 -0.5280328 0.57842183 0.9310035
0.019178258 -0.6065358 0.037473295 -0.08820855 -0.5373507 -3.5981727 -0.0335149 0.11836512
-0.052361432 -0.44868192 -1.6936817 -0.11651219 -0.69131386 -1.4570067 -0.11504668 0.20466521
0.08016422 -0.2637759 -0.48191112 -0.53747165 0.7695422 -0.6273407 0.20829949 -0.44168302
-2.3312066 -1.961598 -0.3886821 -0.999551 0.23674294 -0.28030875 -1.1918107 0.83626765
-0.020964876 -0.1456435 -1.5412518 -0.08431601 -0.48955518 -0.14861374 -0.61615014 -1.1963309
-0.18904378 -1.0904863 -0.29342377 -0.014472988 -0.07888844 -3.2139587 -0.32510698 -0.5982129
-0.5819939 -1.042472 -0.0351265 -0.41205707 -0.20286812 0.01521293 -1.0610951 1.7451327
-2.3713067 -0.72351724 0.4278628 0.0465403 0.96013993 0.20112194 -0.0834127 0.498502
-0.59779143 -0.3830397 -0.09363556 -0.30032635 -0.4503307 0.15175478 0.53775793 -0.69020885
-1.4088224 0.15530804 -0.8718045 -0.6924771 0.16906601 -0.29677975 -0.4005547 -0.21042192
-1.8067777 0.29113513 0.88044584 0.19870527 -0.39715403 -0.44675812 -0.17910427 0.022836344
-0.6930881 -2.558622 0.08763033 -0.77221566 -0.24464166 0.08899226 0.402775 -1.0397716
0.12544738 -0.1018501 -0.38485718 -0.40397137 -0.27502874 -0.17151426 -0.44230115 0.09886624
0.08562627 -1.1726009 0.05438069 0.54554087 -0.57348263 -0.040956534 -1.964945 -0.11691716
0.05826515 -0.16527413 -0.020043751 0.22868977 -1.0018591 -0.3545269 0.3962241 -0.64757025
-0.65928656 -0.16970347 -1.6405395 0.052705683 0.18538795 0.045067668 0.6772343 0.021472475
0.13810459 -0.8634749 0.03012308 -0.066836685 -0.20546031 -0.32118466 -0.68673176 0.012325543
0.2062073 -0.15215139 0.14912148 -0.34728882 -0.19146216 -0.1704453 -0.4545876 -0.4984043
-0.21466674 0.10619704 -0.6666045 0.097739175 -0.316849 -0.1978943 -1.1566439 -0.16502486
-0.1199959 -0.61918765 -0.6255945 0.4343087 -0.058378555 -0.3196725 -0.45790136 -0.6207715
0.1554848 -0.50538856 -0.23476595 -0.84211963 -0.7077897 -0.4468097 -0.97042644 0.054511722
-0.51195174 0.28981015 -0.10755104 -0.09113121 -0.40071955 0.3077767 -0.21638927 -0.6750911
-0.57132334 -1.277481 0.06775904 0.28812835 -0.34528637 -0.010400564 -0.020210976 0.45337552
-0.9227514 -0.45147023 -0.04896019 0.04617897 0.013509654 -0.9522724 -0.645384 -0.15059781
0.2983933 -0.37554875 -0.6521063 0.009195122 -0.08604285 0.32014754 0.19223376 -0.8374517
00000000: ac4c 72bf 14ca 3ebf 6cb3 da3f 6530 8fbf
00000010: 6fde 81c0 c315 b9be a023 7cbf b0cc ff3d
00000020: 4e21 bfbf b001 6dbe 9809 0dbf d162 483d
00000030: 4e50 163d 3e93 07be d7fc 02bf b01b 233e
00000040: acee 17bf c6a2 aebf 6fc8 82bc 9a30 aabf
00000050: b33d afbf 97e0 fa3d ff6b ad3e ed0c 30bf
00000060: 0147 a3bf b867 b33e b1ab 603f ee49 ab3e
00000070: ba3f dcbe 198b 1fbf f659 27be 2c81 01be
00000080: 5afe b3be fc7c b43e 98e7 f0be 6cfd 48bf
00000090: e322 a6bf 95aa 45bd 8c6c 3ebf 3ce4 663f
000000a0: 55aa 933e 3f65 20bf f730 9e3e 5027 61be
000000b0: d9e5 06bf c05f 89bf 7e10 d9be 285e 44bf
000000c0: 60eb b1bf b06b 48bf eaa9 98be ccdc 4b3f
000000d0: ee6d 93bf 282d 07bf 7413 143f 3f56 6e3f
000000e0: b91b 9d3c ee45 1bbf 997d 193d afa6 b4bd
000000f0: d18f 09bf 7648 66c0 eb46 09bd 6969 f23d
00000100: f178 56bd a3b9 e5be 90ca d8bf f19d eebd
00000110: f2f9 30bf 327f babf 989d ebbd c293 513e
00000120: 232d a43d a20d 87be 0ebd f6be be97 09bf
00000130: b800 453f 6699 20bf 764c 553e 4724 e2be
00000140: 7d32 15c0 a515 fbbf 5701 c7be 93e2 7fbf
00000150: be6c 723e a184 8fbe 418d 98bf a315 563f
00000160: 88be abbc 9223 15be bd47 c5bf dfad acbd
00000170: faa6 fabe 332e 18be 04bc 1dbf 5f21 99bf
00000180: b194 41be 0e95 8bbf a43b 96be 1d20 6dbc
00000190: 4390 a1bd 80b1 4dc0 6c74 a6be 7b24 19bf
000001a0: 8dfd 14bf b96f 85bf cee0 0fbd 25f9 d2be
000001b0: a9bc 4fbe a73f 793c f7d1 87bf 8260 df3f
000001c0: 7dc3 17c0 6d38 39bf d510 db3e 0ba1 3e3d
000001d0: bbcb 753f e9f2 4d3e 47d4 aabd a73b ff3e
000001e0: dc08 19bf c81d c4be 00c4 bfbd 60c4 99be
000001f0: bf91 e6be 9b65 1b3e 81aa 093f 87b1 30bf
00000200: 4b54 b4bf 1209 1f3e 942e 5fbf 2e46 31bf
00000210: a41f 2d3e 84f3 97be 8115 cdbe d878 57be
00000220: 7e44 e7bf aa0f 953e e664 613f 6579 4b3e
00000230: c657 cbbe 7bbd e4be 1c67 37be 4913 bb3c
00000240: 396e 31bf 76c0 23c0 8877 b33d edaf 45bf
00000250: 5883 7abe 9341 b63d 8638 ce3e 3c17 85bf
00000260: 4775 003e c996 d0bd 000c c5be 56d5 cebe
00000270: 91d0 8cbe 6fa1 2fbe 4c75 e2be 627a ca3d
00000280: d35c af3d c917 96bf 49be 5e3d 91a8 0b3f
00000290: c2cf 12bf 0ac2 27bd 5183 fbbf 4472 efbd
000002a0: 70a7 6e3d 9f3d 29be cb32 a4bc a72d 6a3e
000002b0: eb3c 80bf 8d84 b5be e3dd ca3e 2ac7 25bf
000002c0: 01c7 28bf bfc6 2dbe 33fd d1bf eae1 573d
000002d0: 57d6 3d3e e098 383d 3a5f 2d3f 0be7 af3c
000002e0: 4a6b 0d3e b10c 5dbf adc4 f63c ace1 88bd
000002f0: 3064 52be 5172 a4be a7cd 2fbf 13f1 493c
00000300: 0228 533e 93cd 1bbe 4db3 183e d7cf b1be
00000310: a80e 44be 3689 2ebe b5bf e8be d92e ffbe
00000320: 99d1 5bbe d57d d93d 98a6 2abf 7a2b c83d
00000330: 083a a2be cea4 4abe e80c 94bf 47fc 28be
00000340: 69c0 f5bd 1583 1ebf f626 20bf b65d de3e
00000350: 5a1e 6fbd 1dac a3be 0c72 eabe e2ea 1ebf
00000360: 6837 1f3e 2561 01bf 7c66 70be 2795 57bf
00000370: b531 35bf 3ec4 e4be de6d 78bf af47 5f3d
00000380: 450f 03bf ff61 943e b843 dcbd 00a3 babd
00000390: 1d2b cdbe e894 9d3e 2695 5dbe c5d2 2cbf
000003a0: 3f42 12bf 7f84 a3bf 40c5 8a3d 8f85 933e
000003b0: 60c9 b0be 2167 2abc 7d91 a5bc d620 e83e
000003c0: 7039 6cbf 1b27 e7be 7b8a 48bd 2926 3d3d
000003d0: 9957 5d3c 20c8 73bf e337 25bf 5036 1abe
000003e0: 02c7 983e ed47 c0be 70f0 26bf 23a7 163c
000003f0: 3c37 b0bd 61ea a33e edd8 443e 3c63 56bf

layers.2.bias f4 [128]
-0.32704604 -0.40054625 -0.08043241 -0.039868694 0.5418386 0.12211781 0.57499397 -0.083724946
0.1540137 -0.08213503 0.48485246 -1.2020626 0.68203306 0.22609241 0.12046848 -0.37867868
1.0728341 1.3073964 0.07514255 0.032313243 -0.083179355 -0.075825945 0.009447086 0.36994827
0.08338771 -0.13891014 -0.1473027 0.0003812127 -0.1277427 0.001516434 -0.12372915 0.38524693
-0.009468314 0.04119299 0.47269693 0.03251715 -0.13059852 -0.03655221 -0.7991161 -0.12008586
-0.11258691 -0.16140015 -0.5337387 0.05726505 -0.11153589 -0.75051993 -0.57225794 0.33533224
-0.12601107 -0.11792552 0.63300896 -0.4781291 0.7376213 0.0020173232 0.092174836 -0.005780444
-0.33492115 0.057576045 -0.51184094 -0.40115795 -0.08888214 0.67731595 -0.5382086 -0.021419145
-0.05159972 0.61947435 -0.10503253 -0.42514452 0.5618172 0.1746663 0.5703376 -0.088080846
0.005764346 -0.33354273 -0.120973505 -1.4618214 0.62244356 -0.4466565 -0.13315739 0.15171622
-0.5400419 -0.005579814 0.8390055 0.21175961 -0.05570307 -0.25129038 0.06551252 0.40409064
-0.08770626 0.17577808 -0.017346222 -0.23128968 1.0498606 -0.0028147597 0.082705 0.5301164
-0.059488863 -0.015455428 0.038941916 0.83941793 -0.012111943 -0.099775314 -0.91849023 -0.16904509
1.2098626 0.119838364 0.07160617 -0.11626838 0.0058709243 0.6963494 0.1871882 0.351435
-0.072710395 -0.22322284 -0.19760725 0.667631 -0.13933575 -0.9259241 0.0020547132 -0.06288514
0.0021812927 -0.010200401 -0.0848577 -0.07666895 -0.06563955 0.07291953 0.033128977 -0.13832305
00000000: 9472 a7be 6614 cdbe bfb9 a4bd 5b4d 23bd
00000010: efb5 0a3f e718 fa3d ce32 133f fc77 abbd
00000020: c4b5 1d3e 6936 a8bd 953e f83e 30dd 99bf
00000030: b899 2e3f c584 673e 2eb8 f63d 2ce2 c1be
00000040: a152 893f c458 a73f 56e4 993d e45a 043d
00000050: f059 aabd a24a 9bbd f3c7 1a3c dc69 bd3e
00000060: 2dc7 aa3d 763e 0ebe 85d6 16be 81dd c739
00000070: fbce 02be 15c3 c63a b565 fdbd 163f c53e
00000080: fd20 1bbc fbb9 283d 5505 f23e b430 053d
00000090: 9ebb 05be c5b7 15bd df92 4cbf 93ef f5bd
000000a0: f793 e6bd 1546 25be 19a3 08bf c28e 6a3d
000000b0: ee6c e4bd 1322 40bf 7f7f 12bf abb0 ab3e
000000c0: 0c09 01be ef82 f1bd e00c 223f 56cd f4be
000000d0: c0d4 3c3f 1135 043b 29c6 bc3d e169 bdbb
000000e0: c97a abbe dcd4 6b3d 0208 03bf 9364 cdbe
000000f0: d707 b6bd 9464 2d3f 0ac8 09bf 3477 afbc
00000100: 3a5a 53bd df95 1e3f 4c1b d7bd 8bac d9be
00000110: 41d3 0f3f b9db 323e a501 123f bb63 b4bd
00000120: d7e2 bc3b 1dc6 aabe f5c0 f7bd f71c bbbf
00000130: 7658 1f3f 29b0 e4be 695a 08be 7f5b 1b3e
00000140: 3040 0abf dfd6 b6bb 10c9 563f 83d7 583e
00000150: e728 64bd 22a9 80be 6e2b 863d f8e4 ce3e
00000160: 579f b3bd 2bff 333e aa19 8ebc 34d7 6cbe
00000170: d561 863f d577 38bb 3d61 a93d b5b5 073f
00000180: 98aa 73bd c338 7dbc 8f81 1f3d 18e4 563f
00000190: 2c71 46bc 0057 ccbd 2d22 6bbf 281a 2dbe
000001a0: c7dc 9a3f d16d f53d 41a6 923d 1e1e eebd
000001b0: e260 c03b f443 323f 43ae 3f3e 4aef b33e
000001c0: 30e9 94bd 8794 64be 8e59 4abe dde9 2a3f
000001d0: 08ae 0ebe 5d09 6dbf 5ea8 063b edc9 80bd
000001e0: 05f4 0e3b 951f 27bc e0c9 adbd 9c04 9dbd
000001f0: 076e 86bd d656 953d 40b2 073d 8fa4 0dbe

layers.4.weight f4 [4, 128]
-1.3522718 0.56768274 0.07075698 0.011155414 -0.80511886 -0.674342 -1.4682926 0.0026277562
-2.3170962 2.9539125 -2.6365752 2.650208 -1.8100845 -1.7806665 2.631528 -0.5801711
-1.38901 -1.690464 0.7919243 -0.0073777614 -0.015798494 -0.06781255 0.028410988 -1.5906074
-1.3522449 -0.27027777 -1.1711192 0.07273632 2.3214152 0.037807323 -0.033944797 0.86009765
-0.9280665 -1.900394 -2.1799896 0.022425698 0.064819105 0.029282063 -1.2003316 -0.080847256
-1.1835539 -1.1914898 1.2547629 -0.798054 -0.042501878 -1.428508 -1.450468 -1.8040379
0.0054328684 0.08301943 -1.9977378 -0.7287541 1.4926234 0.022797573 -1.9257511 -0.04558601
3.3867548 -2.3559177 -1.1920033 -0.76351684 0.037922665 -1.892928 1.6705889 -0.014967045
1.6017139 -2.9080982 -0.039335378 0.87560034 -0.25057957 -1.327068 1.8328099 0.064124435
0.033613756 -1.5946999 -0.0019678476 1.8709527 -1.8221253 -0.80006766 -0.095648795 -1.8727721
-0.84947795 -0.024881726 -0.99800396 -1.1852785 -0.0062171114 -1.890334 -1.7212493 -1.7367904
-0.0075497674 4.735454 -0.9836033 -0.13709468 1.3416045 -0.037097078 3.9061785 -1.956687
-1.1936042 -0.05237799 0.03701519 -3.0614524 -0.00016490862 0.023062328 -2.31407 0.09480284
-1.4208249 -0.97852933 -2.998377 0.020041222 -1.2490668 -0.88302475 -1.1260803 -1.9604369
0.9220972 -1.1498318 -1.7018131 1.6408732 0.04578692 -2.1060367 0.030465586 -0.040153053
-0.061983313 0.016358985 2.0298803 0.009600427 -0.0035336295 -1.5887492 1.1929004 0.012820369
-2.0921745 -0.3609637 0.012205815 -0.066542715 -1.6252801 -1.4130853 -1.5505655 0.004641451
-2.2730913 3.36712 -2.446186 1.655008 -0.7335278 -2.0258908 2.0151062 -1.5655178
-1.4607489 -1.4596823 2.4395947 0.035612963 0.025808679 0.04190467 -0.013330744 -1.4192181
-0.42569083 -2.1474957 -1.8694432 -0.043710105 0.8154471 0.0029844567 -0.0012585709 0.96110886
-1.1750101 0.42234045 -2.0064127 0.02700505 0.036840133 0.0583916 -1.177194 0.042274825
-0.44783238 -0.64578605 1.7110622 -1.5892404 0.043804392 -0.35820007 -1.876827 -2.1168704
-0.039275415 -0.011232198 -2.861682 -0.44525298 1.2522628 -0.08469907 -1.7424729 0.022970103
3.484356 0.75774413 -1.016429 0.10742824 0.03717081 -2.5485651 2.00429 0.0180081
0.21161339 -3.0124135 0.052747454 -0.6827388 -0.25159675 -1.0620396 2.4954703 0.008650939
0.03443142 0.98888063 0.043749515 2.962005 -1.3100876 -1.2192042 -0.008468051 -0.9757201
-1.7002071 -0.047006987 -0.42130375 -1.3470633 -0.0016896576 -2.308476 -1.198383 -0.8674521
0.10401351 5.6520715 -2.055343 -0.14937413 1.3347663 0.025293838 3.533396 -0.6840884
-2.7569542 0.016387379 0.022742115 -2.1821885 -0.0120655075 0.011532108 0.9970242 0.006668153
-1.6998537 -0.98777884 -1.6148496 0.090933196 -1.138103 -0.7585591 -2.3812413 -2.9901915
-0.63225216 -1.302617 -1.967327 1.4537385 -0.0294689 -1.7376024 -0.009178576 0.018343814
-0.01925994 -0.046897713 -1.9368942 0.016266901 -0.029029537 -0.8095848 1.5378442 -0.06963557
00000000: 3e17 adbf a853 113f 09e9 903d 33c5 363c
00000010: 451c 4ebf ada1 2cbf 03f1 bbbf 6f36 2c3b
00000020: 4e4b 14c0 e70c 3d40 a6bd 28c0 029d 2940
00000030: d9b0 e7bf e1ec e3bf f46a 2840 1886 14bf
00000040: 14cb b1bf 2061 d8bf 8dbb 4a3f 26c1 f1bb
00000050: d86b 81bc 4ee1 8abd 29be e83c 0699 cbbf
00000060: 5c16 adbf d961 8abe 3ce7 95bf c8f6 943d
00000070: 1192 1440 dadb 1a3d b309 0bbd 5c2f 5c3f
00000080: c495 6dbf 1c40 f3bf f384 0bc0 19b6 b73c
00000090: e1bf 843d f0e0 ef3c 77a4 99bf 3f93 a5bd
000000a0: b27e 97bf bd82 98bf 129c a03f 444d 4cbf
000000b0: 7316 2ebd 5ad9 b6bf efa8 b9bf b7ea e6bf
000000c0: 3406 b23b 1706 aa3d dfb5 ffbf a18f 3abf
000000d0: 490e bf3f fac1 ba3c 037f f6bf 65b8 3abd
000000e0: 97c0 5840 5bc7 16c0 9093 98bf d775 43bf
000000f0: cc54 1b3d 774b f2bf dbd5 d53f 5638 75bc
00000100: f604 cd3f 481e 3ac0 221e 21bd 5827 603f
00000110: f74b 80be 5ddd a9bf 8499 ea3f ac53 833d
00000120: 94ae 093d 201f ccbf 01f7 00bb 617b ef3f
00000130: 673b e9bf 3cd1 4cbf 84e3 c3bd ffb6 efbf
00000140: 6377 59bf c3d4 cbbc 307d 7fbf 35b7 97bf
00000150: e9b8 cbbb 77f6 f1bf e651 dcbf 264f debf
00000160: 0a64 f7bb d788 9740 6dcd 7bbf 8c62 0cbe
00000170: b2b9 ab3f 1bf3 17bd d4fe 7940 b874 fabf
00000180: 06c8 98bf 4e8a 56bd 3d9d 173d d6ee 43c0
00000190: 52eb 2cb9 35ed bc3c b919 14c0 fe27 c23d
000001a0: 97dd b5bf e680 7abf 69e5 3fc0 7d2d a43c
000001b0: 6ce1 9fbf e90d 62bf 6623 90bf 99ef fabf
000001c0: 900e 6c3f b02d 93bf 03d5 d9bf 2208 d23f
000001d0: 118b 3b3d 4ec9 06c0 f792 f93c 8777 24bd
000001e0: 37e2 7dbd 4703 863c 8fe9 0140 1c4b 1d3c
000001f0: 7794 67bb 225c cbbf f6b0 983f 860c 523c
00000200: 30e6 05c0 3cd0 b8be e6fa 473c 8c47 88bd
00000210: 2e09 d0bf fbdf b4bf ee78 c6bf 5017 983b
00000220: 547a 11c0 e57e 5740 508e 1cc0 4dd7 d33f
00000230: 7ac8 3bbf 32a8 01c0 80f7 0040 e362 c8bf
00000240: d2f9 babf dfd6 babf 5222 1c40 e6de 113d
00000250: b96c d33c 3ba4 2b3d 3169 5abc f0a8 b5bf
00000260: 26f4 d9be 9270 09c0 ea49 efbf 5e09 33bd
00000270: 24c1 503f e096 433b a2f6 a4ba 3b0b 763f
00000280: bb66 96bf 023d d83e 1169 00c0 b239 dd3c
00000290: aee5 163d 082c 6f3d 4bae 96bf 5e28 2d3d
000002a0: 494a e5be 3c52 25bf 1604 db3f 3b6c cbbf
000002b0: 3c6c 333d 0066 b7be de3b f0bf ce7a 07c0
000002c0: 42df 20bd 4107 38bc cc25 37c0 33f8 e3be
000002d0: 264a a03f b576 adbd 5a09 dfbf cc2b bc3c
000002e0: b0ff 5e40 85fb 413f 581a 82bf 5603 dc3d
000002f0: 6b40 183d b11b 23c0 4a46 0040 b985 933c
00000300: 2eb1 583e 62cb 40c0 b70d 583d f8c7 2ebf
00000310: 4ad1 80be eaf0 87bf c9b5 1f40 abbc 0d3c
00000320: f607 0d3d 4827 7d3f b132 333d 7d91 3d40
00000330: f3b0 a7bf e20e 9cbf 95bd 0abc cbc8 79bf
00000340: 63a0 d9bf 668a 40bd 20b5 d7be 926c acbf
00000350: 8077 ddba 12be 13c0 9d64 99bf 5711 5ebf
00000360: 0905 d53d c5dd b440 bd8a 03c0 88f5 18be
00000370: 9fd9 aa3f 0635 cf3c 2923 6240 6b20 2fbf
00000380: f071 30c0 d33e 863c ac4d ba3c faa8 0bc0
00000390: 68ae 45bc 2bf1 3c3c fa3c 7f3f 8680 da3b
000003a0: ce94 d9bf 13df 7cbf 64b3 cebf 2f3b ba3d
000003b0: 5cad 91bf ee30 42bf 4266 18c0 4c5f 3fc0
000003c0: 47db 21bf 27bc a6bf 5fd1 fbbf 1a14 ba3f
000003d0: c368 f1bc c169 debf bd61 16bc c445 963c
000003e0: 06c7 9dbc d117 40bd 26ec f7bf 2a42 853c
000003f0: 5acf edbc f340 4fbf 14d8 c43f 189d 8ebd

layers.4.bias f4 [4]
1.5339869 0.26413974 0.45261833 0.80025274
00000000: af59 c43f 533d 873e 97bd e73e 5ddd 4c3f
