Lunar Landing/lunar_lander_model_DQL.pth (torch, 23305 bytes, 6 tensors)

net.0.weight f4 [64, 8]
-1.2499369 0.564484 0.1884321 -0.9217758 -1.0981985 0.50885516 -0.13037428 -1.4365245
1.5649731 0.2034137 1.404944 -0.3337912 -0.42050782 0.39469317 -0.022203723 0.18117726
-0.58262664 0.5784507 0.9255342 -0.28406832 -0.7016833 0.237345 -0.28593153 -0.49545673
0.07603482 -0.21644615 -0.32488266 -0.7112072 0.8031849 0.631724 -1.4258623 0.45042342
-0.39768407 0.2971497 0.21486731 0.49392584 0.24818717 0.111321546 -0.8231341 0.0008597288
0.26285753 -0.10989538 -0.030988447 0.2553145 -0.5409678 -0.79988116 -0.34923604 0.3768859
-0.27368632 0.13409421 0.075196974 0.47659317 0.29075757 0.73795456 -1.0050108 0.35502148
-0.019844983 0.24784414 0.8154656 -0.18444727 -0.78477573 -0.80161875 -0.99050117 0.52743286
-0.026713349 0.20391 0.11065748 0.45613238 -1.6037889 -0.36156112 -1.0247185 0.09740494
0.2795766 -0.6834413 -0.75017005 -0.9202559 0.9819409 0.15141678 -0.2387533 -0.66117764
0.026341269 -0.13456647 0.068282254 0.45242092 0.86817247 0.52634627 -0.9544642 -0.4087592
-0.16483787 -0.11107667 -0.25363418 0.09107292 -0.95040524 -1.3033283 -1.0487996 0.0035950132
0.5338137 -3.3904757 -0.15343504 -0.09027381 -0.72296643 -0.23709433 0.3804576 0.65663224
0.12376022 0.008216464 -0.007279076 -0.025676666 -2.6171365 0.3358328 0.5531098 0.08393515
0.48482135 0.05103816 0.2179151 -0.12256687 -0.3506986 0.93641406 0.6461921 0.46981922
0.16764049 -0.3196204 -0.34172136 0.18614799 -0.49042594 0.083530165 0.4417303 -0.042342957
-0.5025109 0.05493097 1.359346 -0.119273424 -0.25484058 -0.06481419 0.13160299 0.15406759
0.07866243 0.0006066931 1.9509137 0.017940015 0.02225884 -0.20033693 -1.0457377 -0.85584456
0.41292593 0.07152138 0.47760764 -0.045338247 1.4229516 0.27165496 -0.27056244 -1.6888931
-0.8168013 0.28477976 -0.5955424 -0.48606607 0.024003958 0.21677043 -1.4920728 -0.82130677
-0.90090084 -0.832769 0.04916775 -0.61565995 0.055025104 0.8514321 0.0931463 -0.92919976
-0.017985124 0.0067124288 0.39844394 -1.7970978 0.16094004 -0.19190045 0.053102188 0.1598583
1.2973717 0.025496896 1.0303415 0.27361536 -0.42378297 0.57204914 0.81460094 0.40895116
-0.26926503 0.23331584 0.2645211 0.6475548 -0.41605863 -0.37417573 -1.0018668 -0.34969726
-0.56899136 -0.3292016 1.5058669 1.0832913 -0.21226443 -0.088391595 0.16944535 0.4678259
-0.23416533 0.15114243 -0.22126955 0.3717326 0.2941164 1.0394361 0.11715491 -1.0618858
-0.95270866 0.50136364 -0.25683492 -0.7099808 0.06255092 -0.65213186 0.109747894 -0.13850582
-0.8256588 0.06052732 -0.052120697 0.16313827 -0.018473411 -0.46785215 -0.86778814 0.4346211
0.15275465 0.10671495 0.66239685 -0.62128186 -1.321565 -0.6112354 -0.279537 0.16397089
-0.21379898 -0.20996505 -0.12495621 0.13482963 -0.16095334 0.53976554 -0.18228656 -1.1560918
0.07605657 0.11122523 -1.9192996 -1.2030584 -0.044304706 -0.109160624 -0.008975279 0.040880296
-0.94865537 -0.9851562 -1.0916026 -1.0845686 1.2543325 0.37835756 0.092857964 -0.29945865
00000000: effd 9fbf 0682 103f 58f4 403e 80f9 6bbf
00000010: c591 8cbf 5544 023f d680 05be 09e0 b7bf
00000020: 0a51 c83f ae4b 503e 34d5 b33f aee6 aabe
00000030: cd4c d7be 3915 ca3e 95e4 b5bc 8886 393e
00000040: 0527 15bf 5815 143f cfef 6c3f 6771 91be
00000050: 84a1 33bf 910a 733e 9e65 92be 81ac fdbe
00000060: 25b8 9b3d 0fa4 5dbe 0557 a6be ad11 36bf
00000070: 879d 4d3f aab8 213f a882 b6bf e69d e63e
00000080: 3f9d cbbe 0124 983e 2d06 5c3e d9e3 fc3e
00000090: c724 7e3e 8dfc e33d ebb8 52bf 6c5f 613a
000000a0: 4395 863e d410 e1bd 7cdb fdbc 95b8 823e
000000b0: de7c 0abf 03c5 4cbf 11cf b2be 30f7 c03e
000000c0: 9d20 8cbe fe4f 093e df00 9a3d 0504 f43e
000000d0: 2dde 943e 97ea 3c3f 32a4 80bf 60c5 b53e
000000e0: f291 a2bc dbca 7d3e 5bc2 503f bfdf 3cbe
000000f0: 10e7 48bf e336 4dbf 7c91 7dbf d705 073f
00000100: f4d5 dabc c8cd 503e 64a0 e23d 2f8a e93e
00000110: f448 cdbf 8a1e b9be fa29 83bf 3e7c c73d
00000120: aa24 8f3e 02f6 2ebf 250b 40bf e495 6bbf
00000130: 7b60 7b3f 000d 1b3e bf7b 74be f042 29bf
00000140: a5c9 d73c cbcb 09be 91d7 8b3d b7a3 e73e
00000150: 8d40 5e3f a1be 063f c457 74bf e348 d1be
00000160: 42cb 28be 2a7c e3bd 57dc 81be 7084 ba3d
00000170: c24d 73bf 76d3 a6bf 113f 86bf 509a 6b3b
00000180: 04a8 083f 8efd 58c0 131e 1dbe 7ae1 b8bd
00000190: 5414 39bf dbc8 72be 57cb c23e 0d19 283f
000001a0: 0076 fd3d 599e 063c 5185 eebb df57 d2bc
000001b0: 2a7f 27c0 47f2 ab3e 9b98 0d3f 31e6 ab3d
000001c0: 813a f83e 640d 513d 2325 5f3e 5704 fbbd
000001d0: c48e b3be d5b8 6f3f d86c 253f 258c f03e
000001e0: f3a9 2b3e 49a5 a3be 1af6 aebe 949d 3e3e
000001f0: 1c19 fbbe dd11 ab3d 792a e23e cf6f 2dbd
00000200: 8ea4 00bf 4cff 603d 0dff ad3f a045 f4bd
00000210: 777a 82be 4dbd 84bd efc2 063e e5c3 1d3e
00000220: c519 a13d 7c0a 1f3a 8ab7 f93f f0f6 923c
00000230: 2c58 b63c 2025 4dbe bcda 85bf a118 5bbf
00000240: 076b d33e cd79 923d fd88 f43e 99b4 39bd
00000250: 4723 b63f 5c16 8b3e 2987 8abe a62d d8bf
00000260: e419 51bf a7ce 913e 7775 18bf a7dd f8be
00000270: f3a3 c43c 11f9 5d3e 3efc bebf 2941 52bf
00000280: 70a1 66bf 5930 55bf 1f64 493d e49b 1dbf
00000290: 0162 613d 74f7 593f 7dc3 be3d 09e0 6dbf
000002a0: 8a55 93bc eff3 db3b d800 cc3e 4d07 e6bf
000002b0: 77cd 243e 8d81 44be ae81 593d e5b1 233e
000002c0: 4710 a63f dede d03c 3be2 833f 5017 8c3e
000002d0: 15fa d8be d071 123f b089 503f 0c62 d13e
000002e0: 1bdd 89be 59ea 6e3e 4f6f 873e 27c6 253f
000002f0: a305 d5be f693 bfbe 2c3d 80bf 850b b3be
00000300: 6ba9 11bf 1d8d a8be 3fc0 c03f 4aa9 8a3f
00000310: d95b 59be a706 b5bd 1583 2d3e e086 ef3e
00000320: 09c9 6fbe 15c5 1a3e 7c94 62be bc53 be3e
00000330: 6d96 963e 3e0c 853f eaee ef3d e0eb 87bf
00000340: b7e4 73bf 5e59 003f de7f 83be 4dc1 35bf
00000350: b21a 803d 1df2 26bf 81c3 e03d 78d4 0dbe
00000360: 605e 53bf 7feb 773d 837c 55bd b80d 273e
00000370: 8d55 97bc 518a efbe 5d27 5ebf a886 de3e
00000380: b76b 1c3e 5e8d da3d d792 293f 540c 1fbf
00000390: 0b29 a9bf ec79 1cbf 791f 8fbe fce7 273e
000003a0: 1fee 5abe 1401 57be 0be9 ffbd c710 0a3e
000003b0: f4d0 24be 132e 0a3f 54a9 3abe d1fa 93bf
000003c0: 8cc3 9b3d 0eca e33d 9cab f5bf d1fd 99bf
000003d0: da78 35bd 9b8f dfbd 0c0d 13bc 1972 273d
000003e0: 14db 72bf 3233 7cbf a2b9 8bbf 25d3 8abf
000003f0: f88d a03f 15b8 c13e 512c be3d a552 99be

net.0.bias f4 [64]
0.4455709 -0.12202516 -0.29591814 -0.4092706 0.10866118 0.2983022 0.35282728 -0.3445124
-0.06987942 -0.15865612 -0.17729439 -0.026198274 0.72687453 -0.008825539 0.351939 0.29312253
0.120561674 0.075895466 -0.36781487 0.29481572 -0.3660115 -0.040324915 -0.14169236 0.31619135
0.09284978 0.2700343 0.31106016 -0.64332026 -0.07041545 0.6529594 0.0079329405 -0.18408327
0.35432065 -0.7057298 0.2558731 -0.49222142 0.0837938 -0.22752893 -0.44712424 0.3030542
0.13102563 -0.23224896 -0.36837882 0.7823966 -0.5214663 -0.20398629 0.08441356 -0.007420387
0.0016694175 0.022677818 0.7217043 -0.26563752 -0.5072099 0.6034041 0.63768023 0.60363805
0.23262398 0.43943122 0.11156207 -0.08529125 0.5745204 0.3517649 -0.7716678 0.0066134473
00000000: de21 e43e 54e8 f9bd 9582 97be eb8b d1be
00000010: c189 de3d 11bb 983e c7a5 b43e ee63 b0be
00000020: f11c 8fbd c076 22be a98c 35be c39d d6bc
00000030: 7314 3a3f fe98 10bc 5931 b43e 2814 963e
00000040: 0ae9 f63d 156f 9b3d 3b52 bcbe 16f2 963e
00000050: dc65 bbbe bd2b 25bd cd17 11be d5e3 a13e
00000060: 0728 be3d f041 8a3e 4743 9f3e a3b0 24bf
00000070: fa35 90bd 5928 273f 2af9 013c 5380 3cbe
00000080: 8469 b53e b5aa 34bf cd01 833e 7204 fcbe
00000090: 159c ab3d 58fd 68be 78ed e4be ec29 9b3e
000000a0: 952b 063e acd2 6dbe 269c bcbe 254b 483f
000000b0: d17e 05bf c8e1 50be 04e1 ac3d b826 f3bb
000000c0: 5bd0 da3a d5c6 b93c 9dc1 383f a401 88be
000000d0: 82d8 01bf b178 1a3f 033f 233f 0688 1a3f
000000e0: fb34 6e3e 21fd e03e a87a e43d 2ead aebd
000000f0: c513 133f 871a b43e 058c 45bf 9eb5 d83b

net.2.weight f4 [64, 64]
0.30252165 0.8702093 -0.21995589 0.37287876 0.020516703 0.31257257 0.19853231 0.46358714
-0.30065772 0.46296147 0.8480896 0.81112057 -0.4355344 -0.860912 0.37780043 0.24362533
0.33006734 -0.59669363 -0.8141181 -0.33365378 0.64105076 -0.6225752 0.5035652 0.08411178
0.1437684 0.14758804 -0.21473156 0.34035304 0.4047471 0.1697965 -0.46327552 0.81752396
0.027266225 1.3466661 0.17151625 0.37796533 0.03652466 0.4592254 0.21990357 -0.4518109
0.061727077 -0.098798655 -0.5279573 -0.22765706 0.8803015 0.6043478 0.3631124 0.25436398
-0.40868944 -0.6865471 0.15353729 0.19533111 0.70102805 0.279212 -0.08262904 0.13936095
0.37890506 0.28904673 0.024552029 0.13285425 0.26700625 -0.67839855 0.9953454 0.2538274
0.85750556 -0.43690905 0.5574266 -0.68140966 0.5313107 -0.07070582 -1.0143658 -0.004014957
1.0539513 -0.6677158 0.810932 0.3983736 0.47073632 1.43996 -1.716499 -1.0241832
0.1763455 0.9554568 1.1562932 1.2882012 1.5582337 0.6743417 -1.2797291 0.10307376
0.5907822 -0.21419863 0.79187423 0.39914435 -0.2823252 -0.6650724 0.8239399 0.561907
-2.1604693 -0.0127143115 0.09554266 0.5972238 0.71222764 -0.4679687 -0.82544786 0.550389
0.3175718 0.4529789 0.050273992 -0.12854764 -0.90860265 -1.1502576 -0.60500145 -1.7280601
-0.31083018 -0.6141966 -0.10877136 0.41780332 -0.4792572 -0.35047582 0.27094612 -1.2157308
-0.28705266 -0.7358171 -0.018518962 -0.20847315 0.17408228 0.92463464 0.108151756 -1.5250309
0.40747595 -0.7177721 0.8704873 0.08076582 0.077808455 -0.13564378 0.3502524 -0.83863324
1.2164298 -0.2641737 -0.7181752 -1.0884862 0.9274283 1.1322687 0.05877264 0.3012191
-0.16312352 1.0973866 0.6848904 0.542813 -0.5744071 0.70170337 -0.057002127 0.5314796
0.17947018 0.09429009 0.60422736 -1.7351915 -0.83254665 0.21487996 0.21307783 -0.9757988
-0.07969418 -0.8760998 -0.4132961 -1.6470861 -1.1244581 -0.6490264 -0.22476836 0.6525652
-0.4041377 0.24280253 0.86164147 0.7703139 -2.3104994 -0.20122069 0.1626127 -0.07381666
0.48747188 0.78220165 0.27315062 0.62888247 -1.0153172 0.38262686 0.50614446 0.30013198
0.43875062 0.023135642 0.31852245 0.015022894 0.59222925 0.7968689 -1.6480875 -0.6055109
0.53397316 -0.8141018 0.2828595 -0.15320684 0.16118832 0.28847665 -1.4270914 0.20927757
0.68686295 -0.22806998 -0.30615756 0.76460296 0.19055791 0.6788153 -1.6763124 -0.4543456
0.14739439 0.07625702 0.84553903 0.7385512 1.1380967 0.44742492 -1.7020473 -0.29908744
0.4453559 -0.4020903 0.6266189 0.28150484 0.17708692 -0.75019705 0.58409274 0.67188936
-1.7041448 0.36824042 0.2266785 0.7477622 0.7745882 -0.9389794 -0.33246762 0.08542601
0.2574431 0.40221503 -0.71979797 -0.34865457 -0.33244085 -1.2348484 -1.360568 -0.76609415
-0.47621563 -0.4971225 -0.34155735 -0.12744333 -0.3496142 -0.45270178 0.107451245 -1.2665633
-0.3490165 -0.95466584 -0.104779914 -0.9189817 -0.03659092 1.0541719 0.152674 -1.1161994
00000000: 1ee4 9a3e 09c6 5e3f 1e3c 61be f7e9 be3e
00000010: a512 a83c 8309 a03e 0e4c 4b3e 4b5b ed3e
00000020: cfef 99be 4909 ed3e 661c 593f 99a5 4f3f
00000030: 5dfe debe bb64 5cbf 0f6f c13e eb78 793e
00000040: 96fe a83e eac0 18bf 0b6a 50bf abd4 aabe
00000050: e71b 243f 1761 1fbf a6e9 003f cc42 ac3d
00000060: 0638 133e 5221 173e 97e2 5bbe c142 ae3e
00000070: 033b cf3e 22df 2d3e 7332 edbe 4049 513f
00000080: 6b5d df3c 8e5f ac3f f5a1 2f3e ac84 c13e
00000090: e29a 153d 971f eb3e 672e 613e c253 e7be
000000a0: 88d5 7c3d f356 cabd 3628 07bf ef1e 69be
000000b0: 705b 613f 8ab6 1a3f dee9 b93e ff3b 823e
000000c0: be3f d1be 8dc1 2fbf e138 1d3e e104 483e
000000d0: 9376 333f e0f4 8e3e 6a39 a9bd a3b4 0e3e
000000e0: d8ff c13e effd 933e 5621 c93c f20a 083e
000000f0: 0bb5 883e 87ab 2dbf f5ce 7e3f aaf5 813e
00000100: 7c85 5b3f 8bb2 dfbe 82b3 0e3f dd70 2ebf
00000110: fa03 083f 37ce 90bd bdd6 81bf e78f 83bb
00000120: e0e7 863f 6cef 2abf 3d99 4f3f a0f7 cb3e
00000130: 5a04 f13e 9c50 b83f 3db6 dbbf 6f18 83bf
00000140: ea93 343e d198 743f 6a01 943f c7e3 a43f
00000150: 3474 c73f a8a1 2c3f 2ace a3bf 5618 d33d
00000160: 813d 173f e356 5bbe 45b8 4a3f a65c cc3e
00000170: ee8c 90be 2f42 2abf baed 523f 23d9 0f3f
00000180: 2145 0ac0 b04f 50bc dfab c33d a9e3 183f
00000190: 8d54 363f 9899 efbe 8d50 53bf 4be6 0c3f
000001a0: c598 a23e daec e73e 1aec 4d3d fea1 03be
000001b0: 2f9a 68bf a43b 93bf 60e1 1abf 1331 ddbf
000001c0: 2225 9fbe fd3b 1dbf 85c3 debd 51ea d53e
000001d0: 3361 f5be 9171 b3be 73b9 8a3e 119d 9bbf
000001e0: 91f8 92be 825e 3cbf 14b5 97bc fc79 55be
000001f0: a042 323e dbb4 6c3f ab7e dd3d 3634 c3bf
00000200: b0a0 d03e eabf 37bf 41d8 5e3f 8d68 a53d
00000210: 0a5a 9f3d 34e6 0abe 4854 b33e abb0 56bf
00000220: f9b3 9b3f c641 87be 54da 37bf 8453 8bbf
00000230: f16b 6d3f 2eee 903f 94bb 703d 6439 9a3e
00000240: da09 27be 2a77 8c3f fa54 2f3f cbf5 0a3f
00000250: 580c 13bf d5a2 333f 107b 69bd 0c0f 083f
00000260: 08c7 373e 2a1b c13d a5ae 1a3f c11a debf
00000270: c721 55bf 7e09 5c3e 1331 5a3e f3cd 79bf
00000280: b436 a3bd 1448 60bf 8c9b d3be b8d3 d2bf
00000290: 3eee 8fbf 9826 26bf ad29 66be 830e 273f
000002a0: 23eb cebe 3aa1 783e 8994 5c3f 4b33 453f
000002b0: 39df 13c0 cc0c 4ebe f283 263e 302d 97bd
000002c0: ea95 f93e 5e3e 483f 66da 8b3e 71fe 203f
000002d0: eaf5 81bf abe7 c33e af92 013f e6aa 993e
000002e0: eca3 e03e f586 bd3c 6015 a33e 9622 763c
000002f0: 569c 173f 9aff 4b3f 88f4 d2bf c302 1bbf
00000300: 77b2 083f fa68 50bf f6d2 903e 41e2 1cbe
00000310: 8d0e 253e 36b3 933e eeaa b6bf dc4c 563e
00000320: 40d6 2f3f 2d8b 69be afc0 9cbe 05bd 433f
00000330: 9d21 433e d7c6 2d3f 6891 d6bf fd9f e8be
00000340: 8eee 163e a42c 9c3d 3f75 583f b111 3d3f
00000350: 27ad 913f e114 e53e b0dc d9bf fd21 99be
00000360: b005 e43e c8de cdbe 196a 203f 6721 903e
00000370: 4656 353e ea0c 40bf 1a87 153f f100 2c3f
00000380: 6b21 dabf 028a bc3e 691e 683e 586d 3f3f
00000390: 6a4b 463f f460 70bf 3239 aabe d5f3 ae3d
000003a0: 95cf 833e 21ef cd3e ae44 38bf da82 b2be
000003b0: b035 aabe 830f 9ebf 1827 aebf bf1e 44bf
000003c0: 89d2 f3be d786 febe 9be0 aebe 8180 02be
000003d0: a200 b3be 87c8 e7be 660f dc3d bf1e a2bf
000003e0: 4ab2 b2be fb64 74bf da96 d6bd 6242 6bbf
000003f0: 5ce0 15bd 1bef 863f 9356 1c3e 9fdf 8ebf

net.2.bias f4 [64]
-0.10116207 0.094301835 0.40488565 -0.006013045 0.68445283 -0.010053347 -0.08213492 -0.14189711
-0.25871387 -0.04466951 -0.019438604 -0.14889082 -0.08301959 -0.011250927 0.056419034 0.04800462
-0.17848869 -0.108260125 -0.23217782 0.23258118 0.14270918 -0.2811059 0.05335606 0.61600083
-0.086599864 0.4537782 -0.12605786 -0.12402334 -0.04628134 -0.010485368 0.1864095 -0.1944026
-0.2659625 -0.052720428 0.08736768 0.61980456 -0.20424144 0.7149676 0.35879827 -0.061669353
0.062311538 0.125478 0.08829082 0.3152303 -0.0089005465 -0.08812967 -0.04533112 0.1366483
0.6808313 0.1271741 -0.31121257 0.19498391 -0.03280178 -0.13093448 -0.10418944 -0.08072339
-0.052804865 -0.1876551 -0.053307306 -0.29301494 0.20953271 0.5883699 -0.3026336 -0.018276371
00000000: 0f2e cfbd 5221 c13d 2c4d cf3e 1409 c5bb
00000010: 4d38 2f3f cbb6 24bc 5a36 a8bd 7a4d 11be
00000020: 2576 84be 60f7 36bd b53d 9fbc d676 18be
00000030: 2d06 aabd cf55 38bc a517 673d 7ea0 443d
00000040: bdc5 36be 7cb7 ddbd 06c0 6dbe c329 6e3e
00000050: 5b22 123e 1ded 8fbe e28b 5a3d 3bb2 1d3f
00000060: 455b b1bd 9e55 e83e 5015 01be f3ff fdbd
00000070: 8191 3dbd d2ca 2bbc 22e2 3e3e 7a11 47be
00000080: 3d2c 88be 60f1 57bd d4ed b23d 83ab 1e3f
00000090: ab24 51be 1e08 373f 68b4 b73e 0199 7cbd
000000a0: 623a 7f3d 4e7d 003e d1d1 b43d de65 a13e
000000b0: 99d3 11bc 547d b4bd 20ad 39bd 88ed 0b3e
000000c0: f64a 2e3f ed39 023e 4157 9fbe dda9 473e
000000d0: 295b 06bd b013 06be 4661 d5bd 4e52 a5bd
000000e0: ea49 58bd a928 40be c358 5abd 0e06 96be
000000f0: be8f 563e 699f 163f cbf2 9abe 54b8 95bc

net.4.weight f4 [4, 64]
-0.42353475 1.6700616 1.2328786 1.8025277 0.9458823 -0.78525215 0.08907053 0.08501376
-0.2655278 -0.45802286 -0.66234 -0.55542743 -0.028604612 -0.80348605 0.09403888 0.6701753
-0.9097921 -0.53178924 -0.5728537 -0.8131746 1.7834014 -0.4182858 -0.6388339 0.98272425
-0.49179897 1.5837407 -0.6248916 -0.61391723 -0.48636362 1.6332093 1.4085327 -0.5005961
-0.40703955 -0.5806774 -0.7528085 1.263851 0.72563887 1.1092454 1.0213184 -0.49691105
1.6089299 1.490214 -1.2899232 -1.1586404 -1.008106 -0.5597148 0.08763672 -1.0485765
0.2082663 -0.17544822 0.31657988 -0.5466271 0.103840664 -0.48628286 0.08542887 -1.4902265
0.002175588 -0.2388859 1.1626759 -0.69404995 -0.32606584 0.9806054 -0.5627416 -0.6420457
-0.37933353 1.5458143 1.1867187 1.8204767 0.8402747 -0.99294937 -0.082814015 0.11845037
-0.45621815 -0.58838934 -0.82636577 -0.15744501 0.062070817 -0.6575183 0.054522686 1.1761538
-0.79968375 -0.6636968 -0.37376815 -0.95167774 1.3260791 -0.63771266 -0.43749943 1.0877553
-0.4400355 1.5139828 -0.4448769 -0.8177792 -0.8276374 1.8615905 1.3887204 -0.4905547
-0.45114395 -0.49750736 -0.7818382 1.0975866 0.8533456 0.86549217 1.2692003 -0.29555705
1.723191 1.6099418 -0.76619166 -1.1923736 -0.9685158 -0.7461741 -0.051714268 -1.0400957
0.81069803 -0.79442155 0.8125248 -0.22550097 0.0046103536 -0.5938123 -0.030179402 -1.7245624
0.1093162 -0.80729973 1.1130137 -0.7224416 -0.62521195 1.1097481 -0.48758343 -0.28890464
-0.46708378 1.6451119 0.55798614 1.7580395 1.0569986 -0.86899793 0.016200302 0.06379727
-0.8622698 -0.32915065 -1.421184 -0.46170786 -0.057970345 -0.5177415 -0.0075965547 1.5853434
-1.0383649 -0.35586235 -0.44842905 -0.90361017 1.0395391 -0.48988888 -0.40886167 1.2553828
-0.52759165 1.6976644 -0.5958414 -0.56093603 -0.575134 1.8550947 1.522287 -0.57295656
-0.38242757 -0.63212466 0.132944 1.6552217 1.7131516 1.1185701 0.39545116 -0.43659714
-0.28726527 1.767798 -0.058923043 -1.0256909 -1.0138983 -0.5513934 -0.0341897 -1.2517167
0.74754804 -0.4588263 1.1252059 -0.51269466 0.062017098 -0.37426168 -0.035915203 -1.3723546
-0.07409295 0.9012078 0.69078934 -0.9009044 -1.1614715 0.76618683 -0.70251036 -0.46486524
-0.56491655 1.7906301 1.0895244 1.51413 0.84964776 -1.0187643 0.108419195 -0.033328146
-0.4621235 -0.6005088 -0.7981567 -0.37967014 -0.05859062 -0.8152805 -0.024055392 0.52620155
-1.1024287 -0.58630073 -0.4646769 -1.1218694 1.9029498 -0.31817433 -0.7306617 1.3527671
-0.3811242 1.6318266 -0.583903 -0.3343445 -0.4857856 1.2834275 1.4983389 -0.3131752
-0.7989204 -0.36362934 -0.5766 1.4233576 0.92541486 1.0454352 0.3944265 -0.49091068
1.290318 1.1834629 -1.5607331 -1.0130808 -1.0131415 -0.4282273 0.09059376 -0.9825012
-0.18774499 0.087490715 0.33326194 -0.8108843 -0.071793124 -0.32823744 0.049744472 -0.9147994
0.1086836 0.6664034 1.3211864 -1.0225278 0.34896344 1.1599488 -0.7309739 -0.7320275
00000000: 8cd9 d8be 94c4 d53f f7ce 9d3f 3ab9 e63f
00000010: 5825 723f 4906 49bf 9c6a b63d b21b ae3d
00000020: 43f3 87be f981 eabe 1d8f 29bf 7e30 0ebf
00000030: 3854 eabc 43b1 4dbf 7597 c03d 9c90 2b3f
00000040: 23e8 68bf 5723 08bf 8aa6 12bf 362c 50bf
00000050: 7f46 e43f 8e29 d6be 9e8a 23bf d193 7b3f
00000060: 13cd fbbe 04b8 ca3f e5f8 1fbf ae29 1dbf
00000070: a704 f9be 010d d13f cd4a b43f 1127 00bf
00000080: 7d67 d0be 46a7 14bf 0fb8 40bf dfc5 a13f
00000090: 78c3 393f c1fb 8d3f 90ba 823f 206b febe
000000a0: 6af1 cd3f 55bf be3f 341c a5bf 544e 94bf
000000b0: 9e09 81bf 7849 0fbf e17a b33d c137 86bf
000000c0: c343 553e b3a8 33be c216 a23e c1ef 0bbf
000000d0: 6aaa d43d 11fa f8be 55f5 ae3d bebf bebf
000000e0: 4f94 0e3b 819e 74be 90d2 943f 42ad 31bf
000000f0: 1af2 a6be f508 7b3f d50f 10bf 1b5d 24bf
00000100: 0138 c2be 3edd c53f 66e6 973f 6105 e93f
00000110: 3e1c 573f ee31 7ebf 659a a9bd 1c96 f23d
00000120: 6d95 e9be afa0 16bf b58c 53bf 4439 21be
00000130: f83d 7e3d 1f53 28bf 2e53 5f3d 358c 963f
00000140: 13b8 4cbf 09e8 29bf 8a5e bfbe 27a1 73bf
00000150: f6bc a93f 2341 23bf edff dfbe 913b 8b3f
00000160: 554c e1be 30ca c13f e8c6 e3be fa59 51bf
00000170: 0be0 53bf 9948 ee3f 97c1 b13f fc29 fbbe
00000180: 57fc e6be 49b9 febe 8c26 48bf b87d 8c3f
00000190: db74 5a3f e590 5d3f 2875 a23f 4153 97be
000001a0: 8691 dc3f 9312 ce3f 2325 44bf b39f 98bf
000001b0: a7f0 77bf 4405 3fbf 57d2 53bd db21 85bf
000001c0: e889 4f3f 365f 4bbf a001 503f bae9 66be
000001d0: 7312 973b 1504 18bf cb3a f7bc 76be dcbf
000001e0: 2ce1 df3d 32ab 4ebf 3c77 8e3f eff1 38bf
000001f0: e40d 20bf 3a0c 8e3f 89a4 f9be 4feb 93be
00000200: 9b25 efbe 0793 d23f 2ed8 0e3f 7007 e13f
00000210: bb4b 873f a676 5ebf 7fb6 843c 25a8 823d
00000220: b7bd 5cbf 6f86 a8be 5be9 b5bf f964 ecbe
00000230: 5072 6dbd b58a 04bf 85ec f8bb 88ec ca3f
00000240: 24e9 84bf 9733 b6be 7e98 e5be ff52 67bf
00000250: 9e0f 853f b7d2 fabe 5156 d1be 62b0 a03f
00000260: 3f10 07bf 114d d93f 1089 18bf 8199 0fbf
00000270: fb3b 13bf be73 ed3f 4dda c23f 48ad 12bf
00000280: 8ccd c3be ecd2 21bf 7922 083e 4ede d33f
00000290: 8d48 db3f 4e2d 8f3f 9378 ca3e a989 dfbe
000002a0: 6f14 93be 3447 e23f 4a59 71bd d749 83bf
000002b0: 6bc7 81bf 1e28 0dbf 800a 0cbd 4138 a0bf
000002c0: 4f5f 3f3f 48eb eabe bf06 903f f53f 03bf
000002d0: a405 7e3d 3a9f bfbe d21b 13bd 51a9 afbf
000002e0: 0bbe 97bd 8eb5 663f 92d7 303f aca1 66bf
000002f0: 19ab 94bf d224 443f b8d7 33bf d102 eebe
00000300: 5f9e 10bf 5e33 e53f 8975 8b3f 03cf c13f
00000310: 8482 593f de66 82bf e20a de3d 1883 08bd
00000320: 749b ecbe f2ba 19bf ff53 4cbf 2064 c2be
00000330: b8fc 6fbd 39b6 50bf d00f c5bc 25b5 063f
00000340: 621c 8dbf ce17 16bf 21ea edbe 6b99 8fbf
00000350: dc93 f33f bfe7 a2be a50c 3bbf 7927 ad3f
00000360: b622 c3be b2df d03f ab7a 15bf 342f abbe
00000370: e4b8 f8be 5a47 a43f 92c9 bf3f 8058 a0be
00000380: 0c86 4cbf a02d babe 0f9c 13bf 9530 b63f
00000390: fde7 6c3f d2d0 853f 45f2 c93e a558 fbbe
000003a0: 2429 a53f b67b 973f 1ac6 c7bf a2ac 81bf
000003b0: 9fae 81bf 9c40 dbbe 3989 b93d 3385 7bbf
000003c0: 3940 40be 552e b33d 4fa1 aa3e 1d96 4fbf
000003d0: 4608 93bd bd0e a8be dcc0 4b3d 4b30 6abf
000003e0: 8295 de3d 6a99 2a3f a31c a93f 31e2 82bf
000003f0: 56ab b23e 3479 943f 1b21 3bbf 2766 3bbf

net.4.bias f4 [4]
0.24791186 0.4041858 0.29790267 0.1522171
00000000: 9bdc 7d3e 71f1 ce3e b386 983e cdde 1b3e
